svdd_sin_weights_145.pt (torch, 331447 bytes, 8 tensors)

base_encoder.encoder_rnn.weight_ih_l0 f4 [400, 1]
000000 c5 a9 7e 3d e2 c6 90 bd f8 aa a8 bd c3 fc 92 bc
       0.062173624 -0.07069184 -0.08235735 -0.017942792
000010 ea 59 8a bd 9e bc 85 3d fd 3f 0f bd a9 76 3e 3d
       -0.06755431 0.065301165 -0.034973133 0.046499882
000020 40 62 6a bc e1 50 9a 3c e1 51 44 3c f6 e2 09 bd
       -0.014305651 0.018837394 0.011982412 -0.033663712
000030 5a 93 d6 3d 76 2e 8d bd 40 f3 67 bd 57 85 e7 bd
       0.10477324 -0.06893627 -0.056628466 -0.113047294
000040 ef 83 88 bd 7f 5d 2f bd 24 64 b7 3d ea 83 05 3e
       -0.06665789 -0.042813774 0.08954647 0.13038602
000050 4a 4f e4 3c e2 5a 96 3c df 77 b4 bd 1c 6f 4d bc
       0.02786984 0.018353883 -0.08811926 -0.012538698
000060 0b ac 7a bc 81 a5 ff bc 10 e5 ac 3d 05 5e b4 bb
       -0.015299807 -0.031206848 0.08442128 -0.005504372
000070 c2 a5 29 be c1 15 83 bd 9b d6 a6 3c ee 40 ed 3b
       -0.16567138 -0.064006336 0.020366004 0.0072404062
000080 cb 09 d4 3d ac c8 b6 bd 61 cb 3c bd 8b e2 fe bd
       0.1035343 -0.08924994 -0.046092395 -0.124455534
000090 69 d8 7d bc 92 39 86 3c a3 f6 34 b8 f9 f7 aa 3c
       -0.015493491 0.016384874 -4.3145043e-05 0.020870196
0000a0 40 70 33 3d 64 c5 c8 bc 72 11 d3 3c 90 16 ba bb
       0.04380822 -0.024508186 0.025765155 -0.005678959
0000b0 89 18 9e bd 9d b2 50 3d 77 51 75 3d 7d 7c c8 bc
       -0.077195235 0.05095159 0.059892144 -0.024473423
0000c0 9e 75 9d bd 10 00 0d be 09 ba c1 bc 4f 03 8b bd
       -0.07688449 -0.13769555 -0.023648279 -0.067877404
0000d0 8d c4 1b 3d be 0c a5 3d fe 0c da 3d bf 17 36 3d
       0.038029242 0.08059071 0.10647009 0.04445624
0000e0 4e c1 e1 bc bd 64 c0 bd cd e4 4b 3d 33 10 cd 3c
       -0.027557995 -0.09394214 0.04977875 0.025032138
0000f0 db ee f9 bd 7a e7 35 bc b4 95 a8 3d fc 46 00 3e
       -0.12203761 -0.011102552 0.082316786 0.12527078
000100 b8 a7 1d bc 24 33 db bd 99 67 28 3d ed a0 de bd
       -0.009622507 -0.10703114 0.041114423 -0.10870538
000110 e2 f2 21 be 55 54 bb bd e3 14 17 3d 3c af 61 3c
       -0.15815309 -0.091469444 0.036885154 0.013774689
000120 d1 16 1d 3d 7b 95 24 3d bc cd 0e 3c 05 d4 59 3d
       0.038351838 0.04018162 0.008716043 0.053180713
000130 e4 34 0a bd 5e dd b7 bb 0c 4c 78 bd 0c e8 0f 3d
       -0.033741847 -0.005611106 -0.0606194 0.035133407
000140 aa 20 8c bd 05 b7 2c bd e1 c4 8f bd c1 28 5c 3c
       -0.06842168 -0.04216673 -0.070199735 0.013437451
000150 e2 2a 25 3d 0b d4 9d bb b3 f5 b6 bd ab 63 7b 3c
       0.0403241 -0.0048165373 -0.08933582 0.015343587
000160 5c 27 5b 3c 3a a6 54 3d 56 e8 33 3d 62 47 f6 bb
       0.013376083 0.05191634 0.043922745 -0.0075158337
000170 24 e3 19 bc 7c e3 81 bc e7 2b a1 bd f7 16 bd bd
       -0.009392533 -0.015855543 -0.07869702 -0.09232896
000180 e4 4d 66 3d be 86 1e 3c 93 50 27 3d a1 d7 65 bd
       0.056226626 0.00967568 0.040848326 -0.056113843
000190 91 32 ce 3d 42 fd 62 bd ed d6 2c 3c 7b 6f 35 bc
       0.100682385 -0.055417307 0.010549289 -0.011073942
0001a0 02 a1 b8 bb ec f0 8c bd 38 a4 cd 3d 1c 2e fa 3c
       -0.005634428 -0.0688189 0.10041088 0.030539565
0001b0 0d bd 35 3d e6 2a 4e 3d 98 8c 52 3c 12 0f 0d 3d
       0.044369746 0.05033388 0.012850903 0.0344382
0001c0 f4 72 28 3e 5b 10 cf bd 5b ea 07 bd 23 26 90 bd
       0.16450101 -0.101105414 -0.033182483 -0.07038524
0001d0 60 2c 89 3b 01 9b 07 3d ee 81 95 bd cf 23 0f bc
       0.004186198 0.033106808 -0.07300173 -0.008736565
0001e0 ed 8e 26 3b a4 bc 32 3e 98 b6 09 3d 5e 18 5a bd
       0.002541478 0.17454773 0.0336214 -0.053245895
0001f0 a0 90 8b 3d f4 bb b4 bd c2 fe 99 bd 4c 63 96 bd
       0.068146944 -0.08824912 -0.07519294 -0.07343158
000200 52 b5 56 3b 68 62 3a bc 82 ab 83 bd b4 88 eb bc
       0.0032761884 -0.011376001 -0.06429197 -0.028751709
000210 4b 95 06 3e a2 57 a6 3d 8c 1c d7 3d d1 d0 2d bd
       0.13142888 0.081221834 0.10503492 -0.04243547
000220 b8 97 d6 bb ea 26 85 3d a9 e1 db bd 9d 9e 25 39
       -0.006548848 0.06501563 -0.10736401 0.00015794714
000230 2a 81 d7 bd aa b7 8d bc a6 aa f4 bd 63 6a fd 3c
       -0.10522683 -0.017299492 -0.11946611 0.030934518
000240 4a 73 f6 3b a4 2b d3 bc 0d db 0c 3e 6a 5b 8f bd
       0.0075210677 -0.025777645 0.13755436 -0.06999858
000250 03 0e 81 3c 96 c8 68 bd da 75 88 3d 14 28 a3 3d
       0.015753752 -0.05683192 0.066631034 0.07966629
000260 9b a6 9f bc ea 65 d6 3d 58 d3 8b bd 0d ab c5 bd
       -0.019488623 0.10468657 -0.0682742 -0.09651766
000270 b8 18 ad bd 75 07 6d bd 1f 9e 8e 3d 72 48 35 bd
       -0.0845198 -0.05786844 0.06963753 -0.044258542
000280 09 5b 0b be 8e 90 35 bd 37 3f 8f 3d 33 08 03 3e
       -0.13608946 -0.04432731 0.06994479 0.12796097
000290 19 80 97 ba ff 66 00 be f3 d5 af 3c 73 37 0d be
       -0.0011558562 -0.1253929 0.021464324 -0.13790683
0002a0 1a 6d 21 be b7 4e 7c bd bf d2 75 bd 79 dd d4 3d
       -0.15764275 -0.061598506 -0.060015436 0.10393805
0002b0 0f 40 4c 3b 4a b7 96 3d 5d 31 a9 3d 74 44 30 3e
       0.0031166112 0.07359178 0.082613684 0.17213613
0002c0 4c d9 46 3c 31 b2 46 bd 3c 05 bb bc 86 6a 6e 3d
       0.012136769 -0.04850978 -0.022829644 0.058207057
0002d0 63 ce aa 3b 58 74 ef 3c 5f 9c 16 be c8 9f 2d 3c
       0.0052125915 0.029230282 -0.14708088 0.010597177
0002e0 bf 71 a8 bd f1 44 14 3e 8f 18 c9 bd 07 d2 4a be
       -0.0822482 0.14479424 -0.09819137 -0.19806682
0002f0 ce 8f 5e 3d 08 7a d8 bc a3 1b 0a 3d e0 38 d1 3c
       0.05433636 -0.026425377 0.033717763 0.025539815
000300 b3 6a 90 bd 5f 26 e7 bc 1c 54 a9 3d cb 9c 0e be
       -0.07051601 -0.028216539 0.08267996 -0.13927
000310 6d f0 30 3d 05 f3 87 3d 92 2e 4d 3e e5 c4 be bd
       0.043198038 0.06638149 0.20037296 -0.093148984
000320 23 73 d3 3c c3 f9 28 bd 30 f0 89 3d a6 eb 52 bc
       0.025811737 -0.041253816 0.06735265 -0.012873566
000330 da fb f7 3b 14 95 73 3c 8b ce 56 bc bc 19 eb 3b
       0.007567865 0.014867086 -0.013110767 0.0071746986
000340 06 de 60 bb e7 be ac 3c a0 27 e7 bb c9 da d9 3b
       -0.0034312024 0.021087123 -0.007054284 0.0066483957
000350 83 09 2b bd f7 c9 d7 3c 98 db b8 3c 2b 22 7e 3d
       -0.041757118 0.026341422 0.022565648 0.062044304
000360 0c e5 34 3d 41 21 01 bd 6c 2c 1b bd 5a 22 28 3d
       0.04416375 -0.031525854 -0.03788416 0.041048385
000370 9d 15 14 bd 6b b0 6e 3d 56 2f bb bc 63 a9 9a 3b
       -0.036153425 0.058273714 -0.02284972 0.0047198995
000380 d1 34 43 3c db fd fa bc a7 e0 b7 3a 04 be d3 3c
       0.011914448 -0.030638626 0.0014028744 0.025847442
000390 db ec 7c 3c eb 25 62 3d 3e c4 82 bc 35 43 7d bd
       0.01543733 0.055211943 -0.015962716 -0.06183167
0003a0 11 8f 4f 3d 00 bd a4 bb 39 73 d7 39 f5 f1 a2 3c
       0.050673548 -0.0050274134 0.00041093843 0.019890765
0003b0 25 72 32 bd 7d d5 1a 3d c1 52 96 3c 85 b1 19 bc
       -0.043565888 0.037801255 0.018350007 -0.009380703
0003c0 fb dd 82 bb 77 5a f5 bb e5 25 46 3c 46 1f 7b 3a
       -0.0039937473 -0.007487591 0.012093996 0.000957955
0003d0 3d 00 c3 bc 79 10 ff b9 ac 4c 82 bd ed 8f 62 bc
       -0.023803825 -0.00048649663 -0.0636228 -0.01382826
0003e0 23 a6 3d bd 77 34 77 3d 4a cf f3 3c aa 54 1d bc
       -0.04630102 0.06035277 0.029761929 -0.009602705
0003f0 89 1e 17 bc 97 78 d2 3c 18 2d cb 39 75 c1 1d bc
       -0.009223589 0.025692267 0.00038752775 -0.009628643

base_encoder.encoder_rnn.weight_hh_l0 f4 [400, 100]
000000 96 56 48 bd 29 5b 84 3d 7b b1 45 bc 37 7a 62 bd
       -0.0489107 0.064627 -0.01206624 -0.055292334
000010 c6 66 7c bc bc cd a5 bd 82 58 8a bd 16 7e 56 bd
       -0.0154053625 -0.08095881 -0.06755163 -0.05236634
000020 24 bf a2 3d a3 3c e8 bc fb db 8e bc 92 fc 1f 3d
       0.079466134 -0.028349226 -0.01743888 0.03905923
000030 1f ec 22 3d dc f7 48 bd c1 1b 65 3d 2b f4 d9 3c
       0.039775964 -0.049064502 0.05593467 0.026605686
000040 50 ab db bd 67 61 be 3d 8c 89 e9 bd 6a 61 53 bd
       -0.10726035 0.09295922 -0.11403188 -0.051606573
000050 b0 6b a3 bd ff a1 f4 3d a0 07 7e 3c eb ca c0 3d
       -0.07979524 0.11944961 0.015504748 0.094137035
000060 97 36 8f ba d9 da 45 3d eb dc b1 bc 42 79 c2 bd
       -0.0010926303 0.048304413 -0.021711787 -0.09495784
000070 f2 ae 36 3c b4 b8 07 bd b5 fc 49 3b 73 f3 f9 bc
       0.011150109 -0.03313513 0.003082079 -0.030511593
000080 e5 f9 e5 3b 91 dc 09 3d 1b ec 30 3d 05 a6 dc bd
       0.007018315 0.033657614 0.043193918 -0.10773853
000090 5c cf 95 3d 88 ae 62 3c 91 ed 75 3d d7 71 86 3d
       0.07314941 0.013835557 0.060041014 0.06564682
0000a0 c4 dc a8 bd cf a5 d6 3d cf bc fd bd 1c 9e 91 3d
       -0.08245233 0.10480844 -0.12389528 0.07110235
0000b0 b5 03 08 3b fc 07 14 3d c6 f4 93 bd db 65 91 3d
       0.0020754163 0.036140427 -0.07224421 0.070995055
0000c0 d9 d5 0a bd ea 55 eb bd d5 ea 41 3d 75 d2 4e 3d
       -0.033895347 -0.11490996 0.047343094 0.050493676
0000d0 98 51 d8 3d 32 33 99 3c 60 d8 ae 3d 12 e0 4c 3d
       0.10562438 0.01870117 0.08537364 0.050018378
0000e0 9b 7f 37 bd 4e d0 79 bd 40 0c 28 3d 8c c7 8d bd
       -0.04479943 -0.06098967 0.041027308 -0.06922826
0000f0 58 a6 4a 3d 49 23 93 bd 09 4c a4 3d 1d c4 2a 3d
       0.049475044 -0.071844645 0.08022315 0.041690934
000100 25 ed 53 bc 78 d0 71 3d 54 63 8d bd 50 c5 19 3c
       -0.012934958 0.059036702 -0.06903711 0.009385422
000110 f2 b8 c7 bc 93 08 8d bd 72 6c ce bc 83 59 14 bd
       -0.024380181 -0.06886401 -0.025198195 -0.036218178
000120 45 50 df 3d 28 8e b9 3d 75 40 8c 3d 24 e4 af 3d
       0.10903982 0.09060317 0.06848232 0.08588436
000130 07 4b cc bd 42 cc ae 3d 6c 0f 80 bb fd 38 ad bd
       -0.09975248 0.08535053 -0.0039080884 -0.08458135
000140 64 5f 31 3d a2 5a 72 bd 67 e0 10 bc 83 ae e7 3c
       0.043303862 -0.059168465 -0.008842564 0.028281456
000150 b5 92 99 3d b2 5c 54 bd bc 95 af bd 1b aa bb 3d
       0.07498685 -0.051846214 -0.085734814 0.091633044
000160 ef 0f a6 3c a8 a0 4d 3d a5 4f 40 3d 67 e3 e9 bc
       0.02027127 0.050202042 0.046950955 -0.028550817
000170 9f 8d 90 3d b4 f3 a0 bd f9 97 f1 3c e8 76 7d 3d
       0.07058262 -0.07858983 0.029491412 0.061880976
000180 07 f3 ad 3d 8a 96 7e bd c9 85 8e bd 18 10 e4 3c
       0.084936194 -0.062155284 -0.06959111 0.027839705
000190 d9 75 85 bd cb 04 c3 bd 2d 0d 91 bd 41 dd 8a bd
       -0.06516618 -0.095223986 -0.07082591 -0.06780482
0001a0 59 c6 c5 bc fe 61 42 bd e9 ee 48 bd a3 37 a8 bd
       -0.024142431 -0.047456734 -0.049055967 -0.08213737
0001b0 de 91 9e 3d 81 99 0f bd d6 d0 5c bd 59 ee 46 3d
       0.07742666 -0.035058502 -0.0539101 0.04856715
0001c0 7a 23 bb bd ca 58 a6 3d 36 57 9a 3d c7 2c be bd
       -0.09137626 0.08122404 0.075361654 -0.09285884
0001d0 04 d6 8d bd 5e 79 85 bd cd b0 85 bd 58 f4 19 3d
       -0.06925586 -0.065172896 -0.06527863 0.03758654
0001e0 27 39 d1 bd c9 70 7a bd 49 c6 14 3d da 00 4a bc
       -0.10215979 -0.061142717 0.036321912 -0.012329305
0001f0 30 7a 22 bd c4 7c c6 bd a3 f6 47 3d ba c1 9c 3c
       -0.03966731 -0.09691766 0.048819195 0.019135345
000200 08 89 10 bd 62 d5 3e bd 0d 1d 01 3a 31 2e 6a 3b
       -0.035286933 -0.046590216 0.00049252884 0.0035733099
000210 c2 ce 68 3d c4 35 21 3d bc e9 22 bc bc 8e a6 bd
       0.056837805 0.039357916 -0.009943422 -0.08132693
000220 c8 f1 3e 3d 58 29 91 3b 35 83 40 bd 67 d1 c1 3d
       0.0466173 0.0044299774 -0.04700013 0.094637685
000230 d6 eb 3f 3d 53 da 96 bd e7 36 9e bd 87 12 e2 bc
       0.04685577 -0.07365861 -0.077253155 -0.027596725
000240 2c ae 83 bd 8f ff 0e 3d a3 5f 98 bd 00 b6 e2 3d
       -0.06429705 0.03491169 -0.07440116 0.1106987
000250 34 9e 6c bd c1 db 8b 3d b9 d1 50 bb c6 a5 4e bd
       -0.05776806 0.06829024 -0.0031863286 -0.050451063
000260 92 f3 9b 3d 68 65 63 bd 54 c5 6a bd 81 35 cb 3b
       0.07614817 -0.05551663 -0.057317093 0.0062014465
000270 82 15 b6 3d 9b 38 c1 bc e4 b4 93 bd ea e3 a4 bd
       0.08890821 -0.023586562 -0.072122365 -0.08051284
000280 9e a8 14 bd 1a 2a b5 bc ab 2e 46 bc e1 c0 7a bd
       -0.03629362 -0.022114802 -0.012096087 -0.0612191
000290 e7 06 21 3d de 88 d0 3a 99 fe 91 bd e8 59 84 bd
       0.039313223 0.001590993 -0.07128639 -0.06462461
0002a0 e8 08 3a 3d 73 d1 57 bc c7 4f a7 3d af 6d 94 bc
       0.04541865 -0.013172495 0.08169513 -0.018118707
0002b0 6a c3 8e bd 46 b6 72 bd 76 7e 30 bd b5 2c 20 bd
       -0.06970866 -0.05925586 -0.043089353 -0.039105136
0002c0 cf 2b 1a bc 99 f5 a1 3b 71 d4 c6 3c e2 3c 44 bd
       -0.009409859 0.0049426076 0.024271222 -0.047909625
0002d0 a3 88 a7 3d e8 d3 84 3c 64 69 85 bc 9f aa 9f 3d
       0.08180358 0.016214326 -0.016285606 0.07796215
0002e0 1d 69 57 3c e7 dd 80 bd 7d 23 8a bd 9d e2 89 3d
       0.01314762 -0.062923245 -0.0674505 0.06732676
0002f0 1b 93 8e 3d f1 36 97 3d 0d b2 c1 3b ff 8a a4 3d
       0.06961652 0.07383526 0.005911118 0.08034324
000300 f4 06 78 3d c5 c1 34 3d 4c ee 37 bc 25 96 d9 3d
       0.060553506 0.044130106 -0.011226248 0.10624341
000310 8d d5 1a 3d de 37 0c bd 93 da d1 bc 13 c6 ab 3d
       0.037801314 -0.034232967 -0.02561692 0.08387389
000320 6d a7 8d 3c a4 3f a6 bc fa fa b6 3d f3 2f 41 3d
       0.017291749 -0.020294018 0.08934589 0.04716487
000330 ed 38 a7 bd 95 c9 bc bd f9 1b 5e 3d ae f0 98 3d
       -0.081651546 -0.09218136 0.054225896 0.07467781
000340 8f 7d 5f bd e3 ff 08 3d 58 db 8b 3c a0 39 c3 bc
       -0.0545631 0.033447158 0.017072365 -0.023831189
000350 04 f1 1f bd e3 d5 0f 3d 3e eb b0 3c 0d a9 27 bc
       -0.03904821 0.035116088 0.021596547 -0.010233176
000360 78 f6 04 3d 01 66 9f 3d ae b2 27 3e cc a3 fd 3c
       0.032461613 0.077831276 0.16376755 0.030961893
000370 1e 74 89 3c 66 44 14 be e7 3a 8b 3d 3a be 2e 3d
       0.016779002 -0.14479217 0.06798344 0.042661883
000380 8a ce 64 3d d2 d5 b8 3d cb 20 e3 bb 1c 99 87 3d
       0.055861033 0.09025158 -0.0069313995 0.06621
000390 29 a1 c5 bb 1d 4b 90 3d 41 f8 98 3d d9 23 08 bd
       -0.0060311747 0.07045577 0.07469226 -0.033237312
0003a0 61 f5 c1 bc f5 88 ee bc 75 43 2d bd b7 f3 ea bd
       -0.023676576 -0.02911804 -0.04230066 -0.11472266
0003b0 8d af f4 b9 31 50 86 bd 6d 8d b6 bd 06 43 0b bd
       -0.00046670102 -0.06558264 -0.089136936 -0.033999465
0003c0 fa d2 c8 bc 4b 59 2b bd b7 67 48 bb 47 58 ba 3d
       -0.024514664 -0.041833203 -0.0030579397 0.09098869
0003d0 3f 9e 5e 3d 6f c7 1c 3d 46 bb 19 bd c7 74 2f 3e
       0.054350134 0.038276132 -0.037532113 0.17134391
0003e0 9f b2 c1 bd 5c 9e d6 bd 05 24 d6 bd 21 16 07 3d
       -0.094578974 -0.104794234 -0.10456089 0.03298009
0003f0 05 94 9a bd aa 4d 87 bc 0c 93 4e bd 98 f4 7e bd
       -0.07547764 -0.016516525 -0.050433204 -0.06224498

base_encoder.encoder_rnn.bias_ih_l0 f4 [400]
000000 ef df b4 bb 88 7b cd 3d c3 f8 9b bd 89 0f 78 3d
       -0.005519859 0.10033327 -0.07615807 0.06056169
000010 b1 ab 98 bd b6 97 88 bd 5c 0a 99 3d f9 33 5e 3d
       -0.074546225 -0.066695616 0.07472679 0.054248784
000020 4e d3 0b bd 39 d7 9e bd cd c0 9b bc 0d 96 11 3d
       -0.034137063 -0.07755894 -0.019012833 0.03554349
000030 2c 11 93 3d 57 7e 53 bc 4e f9 a9 3d ea 0f 07 bd
       0.0718101 -0.01290854 0.08299504 -0.03297416
000040 17 75 0d 3d b8 fb 25 bd ec ce 87 3c e7 19 79 3d
       0.034535494 -0.04052326 0.01657816 0.060815718
000050 d7 94 e6 bc 9e 19 c2 3d 10 e3 b1 bd 70 29 00 3d
       -0.028147144 0.09477542 -0.08685887 0.031289518
000060 e9 d5 9f 3d 74 e5 db 3d 16 7c c1 3d cd 06 d1 3d
       0.07804472 0.10737124 0.09447496 0.10206375
000070 b9 bf 03 3d 30 b9 eb 3c 4a bd 91 3d c6 cd 02 bd
       0.032165263 0.028774828 0.07116182 -0.031934522
000080 b0 f6 70 3d c6 ef 56 bd 2e ab 6f bc 71 bc 73 bd
       0.05882901 -0.05247476 -0.014628215 -0.059505884
000090 42 26 b5 3d c7 26 52 3d b6 f9 51 bc 1f 7a d2 bc
       0.08845188 0.051306512 -0.012815883 -0.025692998
0000a0 94 5a e4 3c 6f 73 53 bd da 77 39 bc a8 52 5d 3d
       0.027875222 -0.051623758 -0.011320079 0.054033905
0000b0 b4 be c8 3d 30 67 25 bd 11 7c 29 bd 74 e1 8d 3d
       0.09801999 -0.04038161 -0.041378085 0.069277674
0000c0 b2 f3 0e 3e 87 d9 cb 3c c2 0e b2 bd 6d 81 72 bd
       0.1396015 0.024883999 -0.08694221 -0.05920546
0000d0 08 81 f8 b8 66 f1 ae 3d d5 5b e9 bc e7 fd 55 bd
       -0.000118495955 0.08542137 -0.028486172 -0.052244093
0000e0 d5 63 28 bd 5e 8d cd bc 77 18 b7 3c 56 94 b6 3d
       -0.041110832 -0.025091823 0.022350533 0.089150116
0000f0 41 27 53 bd 52 7b d2 3d 9e a1 05 bd 18 74 a7 bd
       -0.051551107 0.10277428 -0.032624833 -0.0817644
000100 5f 98 af bd 13 32 cd 3d dc 02 94 bd 50 23 82 bb
       -0.08573984 0.100193165 -0.07227108 -0.0039714947
000110 80 4c 8d 3b c8 db 95 3c 65 2f cc 3c 08 bd a0 3d
       0.004312098 0.018293276 0.024924943 0.07848555
000120 90 3f bf bc 4e a1 a3 3d fc c6 41 3d 75 58 21 3c
       -0.023345739 0.07989751 0.047308907 0.00984775
000130 99 45 c1 3a de 8f c5 bc 87 86 8d bd c4 31 a6 3d
       0.0014745473 -0.024116453 -0.06910425 0.08114961
000140 66 28 95 3d 8d 56 dd 3d 0b ae 74 3d e4 bd 73 bc
       0.07283096 0.10807524 0.059736293 -0.014876816
000150 b7 98 6f 3d 5d 5c b6 3d cd b0 d8 3d 15 7c b9 3c
       0.05849525 0.08904336 0.10580597 0.022642175
000160 ab 64 14 3d e6 ab 39 bd 04 89 93 3d b8 bd 0d bd
       0.036228817 -0.04532995 0.07203868 -0.034604758
000170 5d 43 e9 3d d5 a7 c7 3d 0b c8 34 3d a6 81 3a bc
       0.11389802 0.09748808 0.04413609 -0.01138345
000180 74 14 be bc 72 ec 0c 3d ef fa bd 3d a5 71 3d 3d
       -0.023203112 0.03440518 0.092763774 0.046250958
000190 b3 c3 6e 3c bb ad b7 bc 19 dd 3c 3d 40 46 d7 3d
       0.0145730255 -0.022421708 0.046109293 0.10511446
0001a0 5e b2 c4 3d b2 39 46 3d 05 15 03 bb a2 e8 68 3d
       0.09604333 0.048394866 -0.0020001542 0.05686248
0001b0 b5 45 d5 3d 7c 43 c6 bc f2 7d 86 bc 12 bf d0 bc
       0.10413686 -0.024202101 -0.016417477 -0.025481734
0001c0 80 fa 6b 3c e4 93 8e 3d e9 85 89 3d 81 a0 75 3d
       0.014402986 0.06961802 0.067149945 0.05996752
0001d0 e1 1e 8f bd ab 51 4f 3d d7 7f a7 bd c9 03 c6 3d
       -0.069883116 0.050614994 -0.081786804 0.09668691
0001e0 fc a6 06 3d e9 66 b2 bd e9 67 5f bd e1 80 6d bd
       0.032874092 -0.08711035 -0.054542456 -0.057984237
0001f0 d5 19 ec bc 5a a4 2b bd d3 5f 55 3d 5f 54 0e bd
       -0.028820911 -0.041904785 0.05209334 -0.03474843
000200 39 29 a2 bd ca 46 c3 3c ed fd 06 3c 16 6a ad 3d
       -0.07918019 0.023837466 0.008239252 0.084675
000210 49 96 46 bd 2b f8 89 bb 35 56 11 bd 73 ed 22 bd
       -0.048483167 -0.004210492 -0.035482604 -0.03977723
000220 7a f1 46 bd e3 71 7c 3d cb 73 ea 3b b4 42 e9 bc
       -0.048570134 0.06163205 0.007154917 -0.02847419
000230 57 5d f2 3b b0 69 b0 3d ad c0 bf 3d 1a 7a 0e 3c
       0.007396381 0.08613908 0.09362922 0.0086961035
000240 07 96 f2 3d 1f 60 1a 3d 74 5f 5d 3d 3d 0a c0 3d
       0.11845022 0.037689324 0.05404611 0.09376953
000250 1d 62 c7 bc 55 67 5e 3c de aa 90 ba 38 9c 18 3d
       -0.024338776 0.013574441 -0.001103725 0.037258357
000260 23 41 bd 3c b6 80 58 bd 4f 73 fb 3d c9 72 47 bd
       0.023102349 -0.052857123 0.12277853 -0.048693452
000270 83 49 aa bd 02 53 8b bd b5 16 14 3d 4a 0b 64 3b
       -0.083148025 -0.06802942 0.036154468 0.0034796768
000280 4c ac 87 3d b3 f7 d0 3b 25 c5 2f 3c 35 d0 68 3d
       0.0662466 0.0063771843 0.010728155 0.056839187
000290 90 c4 cd 3d 86 d8 08 3c 81 e7 a4 3a 05 e3 be 3d
       0.10047257 0.008352404 0.00125812 0.09320644
0002a0 6c 4a b3 3d e2 8d 85 3d 83 3a c0 3c 7f 14 77 3d
       0.08754429 0.065212026 0.0234654 0.06032228
0002b0 d4 3b 9f 3d 56 5b cc 3d ee 3e ba 3c cb 0e ec bc
       0.07775083 0.099783584 0.022735085 -0.028815648
0002c0 6c 37 86 3d eb d1 01 bb 49 65 61 3c 16 ec 9a bd
       0.0655354 -0.0019808959 0.013757058 -0.07564561
0002d0 59 b9 e5 3b 2c f3 a3 3d 83 16 8d 3d fd 4b a9 ba
       0.0070106206 0.08005366 0.068890594 -0.0012916323
0002e0 1f df 61 3c 0f 7f 86 bd 86 af e1 3c c1 f8 1b bd
       0.013786106 -0.06567203 0.027549516 -0.038079027
0002f0 17 27 57 3d 45 26 1f bc dd e9 22 3c dd be 19 3d
       0.052527513 -0.009713714 0.009943453 0.037535537
000300 f4 7e aa 3d 1a 6a ce 3d ff 66 5e bc 17 26 95 3d
       0.08324996 0.10078831 -0.013574361 0.07282656
000310 81 2b db 3c 98 3d f6 3c b1 6c 88 bc a8 e6 83 3d
       0.026754143 0.030058667 -0.01665339 0.064404786
000320 1e 6f 9f bc 7d b1 8e 3c 73 e9 b7 bc 51 a3 87 3b
       -0.019462164 0.017418617 -0.022450184 0.004139342
000330 2f 60 cb bd e9 4b b4 3c 2d 00 d0 bd 8e 3a 07 3d
       -0.09930455 0.022008853 -0.101562835 0.033014826
000340 39 82 35 3c 5f ef 9a bd dc f0 cf 3d 52 f0 38 3b
       0.011078411 -0.07565188 0.10153362 0.0028219414
000350 b1 d7 0b 3d 90 4b ac ba db b2 a0 3d 9f 22 5a 3d
       0.034141246 -0.0013145078 0.07846614 0.053255673
000360 89 c2 a3 3c 0e 8c 33 bd c7 0d a6 3d e5 0b d9 bb
       0.019990223 -0.04383474 0.081080966 -0.0066237324
000370 85 1d 34 3d 01 71 41 bd 10 0d b6 bd ba 80 80 3b
       0.043973465 -0.04722691 -0.0888921 0.0039215954
000380 26 f4 e8 3c f9 0a 68 bd ae a4 1e 3d 7d 74 91 3d
       0.028436732 -0.05665109 0.03873127 0.071022965
000390 92 c0 a9 3d a8 c7 fb 3b 7b c2 a1 3c af 49 4e bd
       0.08288683 0.007683713 0.019746056 -0.05036324
0003a0 8a 8e 17 bd 58 1a 9f 3d 42 cb 85 bd 28 72 93 3d
       -0.03700117 0.077686965 -0.06532909 0.07199508
0003b0 7d 62 44 bd b4 23 c8 bd 37 86 b2 3d cc b1 e5 3d
       -0.04794549 -0.09772435 0.08717006 0.11215553
0003c0 da 7d a8 bd 6a ed 11 3c 1a 8b 1a bd e8 35 92 bc
       -0.08227129 0.008906702 -0.037730314 -0.01784797
0003d0 ab 52 f9 bd bc ef 41 bd 03 13 60 3d ca 55 ac 3d
       -0.12173971 -0.04734777 0.05470563 0.084148005
0003e0 d4 7c b1 bc 76 8e 74 bd 77 db c3 bd 37 7d 21 bd
       -0.021665968 -0.059706174 -0.09563344 -0.039426055
0003f0 3c fa ee 3d d0 72 d2 bb 02 58 66 bd 95 12 a7 bc
       0.11668822 -0.006422378 -0.056236275 -0.020394603

base_encoder.encoder_rnn.bias_hh_l0 f4 [400]
000000 11 52 4f bd b6 33 7a bd d7 99 99 bd a8 97 54 bd
       -0.050615374 -0.06108447 -0.07500046 -0.051902443
000010 06 4d 8a 3d d8 7b 5b 3b 5e f8 aa 3c 66 61 31 bd
       0.06752972 0.0033490565 0.020870384 -0.043305777
000020 35 9b 11 3d 49 62 69 3d d6 d6 fd bc 74 29 c6 3d
       0.035548408 0.056978498 -0.03098623 0.09675875
000030 27 80 8b 3d 43 80 7a bd 35 02 86 3c e0 cb 85 3d
       0.068115525 -0.061157476 0.016358474 0.06533027
000040 64 c0 83 3d d3 a7 31 bd 0f f6 a5 3d 34 f5 98 3c
       0.0643318 -0.04337294 0.081035726 0.01867161
000050 1b 6d 00 3e 8a 0d 06 bd 20 ca ff 3c 12 e8 c2 3d
       0.1254162 -0.032727756 0.03122431 0.0951692
000060 0d 0b a5 3d 49 3a b4 3c 39 19 82 3d b3 cf 8f 3d
       0.080587484 0.022000449 0.06352467 0.07022037
000070 64 dc 82 bb 7b 38 96 bc eb 11 e4 3d e1 aa 8f 3c
       -0.0039935578 -0.018337479 0.1113623 0.017537536
000080 59 7e fe 3c 2e 76 aa 38 13 8c 5b bd 05 d2 bd 3d
       0.031066107 8.1282444e-05 -0.053600382 0.09268574
000090 13 42 ca bd ea 8d 86 bd a8 23 f4 3c a0 47 a8 3c
       -0.09875884 -0.06570037 0.029802158 0.020541966
0000a0 4e 78 32 bd be 67 a0 3d a5 71 84 bd da 16 23 3d
       -0.043571763 0.07832287 -0.064669885 0.039816715
0000b0 af bf 2c bd 8f b9 bf 3d 76 2f ca bd c8 27 f3 3c
       -0.04217499 0.09361564 -0.09872334 0.029682055
0000c0 3e ca b4 3d 3f e4 ae 3d 53 61 b1 bd a5 e7 3b bd
       0.08827637 0.08539628 -0.08661141 -0.04587521
0000d0 f0 f2 20 3d df 3c d2 bc 6b 02 79 bd dd 09 76 bd
       0.039294183 -0.025663791 -0.06079332 -0.060068
0000e0 d4 3b 67 bd f6 a2 9b 3d f2 cb 76 3b f2 5f b9 bd
       -0.05645354 0.07599442 0.0037658182 -0.09051503
0000f0 df c2 b0 bd 94 8a 12 bc d9 99 cf 3c 5d 6f cc bc
       -0.08630919 -0.008944172 0.025341915 -0.024955446
000100 bb 29 87 3b 89 7d 5e bd c0 4e 9a bc 35 65 8b bd
       0.0041248477 -0.05431894 -0.018836379 -0.06806413
000110 fa 68 91 3d e9 97 d2 bc 91 99 a8 3b 0e 44 94 3d
       0.07100101 -0.025707202 0.0051452597 0.07239543
000120 a4 41 c8 bc 29 84 c9 bb 6b d7 64 3d 49 01 ca 3d
       -0.024445362 -0.006149788 0.0558695 0.098635264
000130 6f 4f 92 3c 3a 32 32 3d 6f c0 83 bd a4 34 ba 3d
       0.017860143 0.04350493 -0.06433188 0.09092072
000140 2e a8 bc bc 77 56 bc 3d f5 3d 9e bd 80 bd c3 bc
       -0.023029413 0.09196179 -0.07726661 -0.023894072
000150 53 a0 8f bd 69 32 5e 3d 6c 50 f4 bb ee cb 17 bd
       -0.07013001 0.054247294 -0.007455876 -0.037059717
000160 e7 30 32 bd ac 56 41 3d fc 96 da bb ca 84 44 3d
       -0.04350367 0.047201797 -0.006670831 0.0479782
000170 c0 98 78 3d dc 4a 68 3d 9f bf 01 bd eb 67 d7 3d
       0.06069255 0.056712016 -0.031676885 0.10517868
000180 68 35 81 bd 90 b7 33 3d 81 b1 b4 3d 64 39 05 bd
       -0.063090146 0.04387623 0.08822919 -0.032525435
000190 7e ef aa bc a7 3c a6 3d d7 0f c0 bc a3 90 90 bd
       -0.020866152 0.08117037 -0.023445053 -0.07058837
0001a0 13 3a 89 3d 32 01 d9 3c 53 1c f3 3b 43 f3 d6 3d
       0.0670053 0.026489828 0.007419148 0.10495617
0001b0 6b 81 aa b9 2a ef 78 3c 0f a2 0c bc ea d4 91 3d
       -0.0003252135 0.01519374 -0.00858356 0.07120688
0001c0 6a 2a c3 3d ab 15 30 bd 12 f8 58 bd 97 67 3e bd
       0.09529574 -0.042989414 -0.052970953 -0.04648551
0001d0 13 b5 b2 bd d5 3c e3 3a 9c 79 09 bd aa 95 15 bd
       -0.087259434 0.0017336855 -0.03356324 -0.036519684
0001e0 f6 4a 9e bd 70 5e c4 3c b4 2f 34 3d 18 d7 4d 3d
       -0.077291414 0.023970813 0.043990806 0.050253958
0001f0 bf 3b 8c 3d bd 0d 79 bd 04 6d 96 bd da 1f f6 3c
       0.06847333 -0.060804117 -0.07345012 0.030044485
000200 e4 12 9f 3d 9f 39 ac 3d fb 2e 93 3d fa e2 48 bc
       0.07767275 0.08409428 0.07186695 -0.012261147
000210 21 52 bc bd 0c 93 ea 3c 40 80 5b bc b2 11 dc 3d
       -0.09195352 0.02863457 -0.013397276 0.107455626
000220 df 25 96 bc 0a 29 45 3d ea 78 84 3d 99 d2 81 bd
       -0.018328605 0.04813484 0.06468375 -0.063389964
000230 0e 0b 1f 3d ec eb 5d bd f7 98 2b 3d 93 10 c3 bb
       0.038828902 -0.05418007 0.041893926 -0.0059529035
000240 87 db a1 3d 4e 9e 92 bd 72 92 4b 3d 6b 80 60 bd
       0.079032 -0.071591005 0.049700208 -0.05480997
000250 c4 a0 0c 3e 2d 42 c4 3c dc 7a 95 bc 06 75 ae bd
       0.13733202 0.023957336 -0.01824706 -0.08518414
000260 70 4b 08 3d 29 2b a3 bd 86 b1 a7 bb 33 3f 89 3d
       0.033275068 -0.079672165 -0.005117598 0.067015074
000270 dc c7 14 bd 6e c7 e4 3d 90 88 ac 3c 14 b6 da 3c
       -0.036323413 0.11170851 0.021061212 0.02669815
000280 55 60 0b bd 5c 6a 7a bd d1 6a 84 bd 78 bc 5e 37
       -0.034027416 -0.06113659 -0.06465686 1.3276112e-05
000290 78 47 0f 3d fd 12 c5 3d 91 7f 72 bd d2 c6 13 ba
       0.034980267 0.09622762 -0.059203688 -0.00056372315
0002a0 ba 7f ec bc cc 45 c5 3d 93 98 a7 3d 9c ff b5 bc
       -0.028869499 0.09632453 0.08183398 -0.02221661
0002b0 c7 42 9e bd e3 ab 9b ba d9 87 a5 3d 75 e6 9f bd
       -0.077275805 -0.0011876788 0.080825515 -0.07807628
0002c0 c8 61 77 bd d7 85 a0 3d 24 a0 73 3d 4d 64 83 3d
       -0.060395986 0.07838028 0.059478894 0.06415615
0002d0 3e 8c 80 3d a2 31 8a 3d be ef 17 3d d3 62 9c 3d
       0.06276749 0.06747748 0.03709387 0.07636037
0002e0 bc 51 9a 3d b5 2c cf bb 69 ab d3 3d f0 72 8a bd
       0.07535121 -0.006322468 0.10335428 -0.06760204
0002f0 59 7d f7 bc 9b 17 d1 3b 4c 07 99 3d 54 29 00 3d
       -0.030211138 0.006380988 0.07472095 0.031289414
000300 8f 3e 9b 3d 6f 9f 70 bd a0 e6 5c bd 52 6c 35 3c
       0.075802915 -0.058745798 -0.05393088 0.011073189
000310 a1 60 1f bd d8 4d 81 3d 26 7e 04 3d 49 33 83 3d
       -0.038910512 0.06313676 0.032346867 0.06406266
000320 34 bc ce bd b9 13 bd bd 8b ec f0 3d 1c 5a 02 bc
       -0.10094491 -0.092322774 0.11763867 -0.007956054
000330 a3 84 07 bc c3 2c 05 3d 9e de 5d 3d 5c f7 25 3d
       -0.008271369 0.03251339 0.054167382 0.040519103
000340 71 3c f4 3d 91 a3 98 bd 67 ee 38 3d c3 c7 45 3d
       0.11925591 -0.07453073 0.045149233 0.04828621
000350 17 d8 02 3a 6a a2 c3 3d 6c 10 1b bb 7b 58 73 bc
       0.00049913063 0.095524624 -0.0023660911 -0.014852638
000360 1f a4 0b 3d dc e8 af 3d 41 0e e7 bb 54 3c 84 bd
       0.034092065 0.08589336 -0.0070512597 -0.06456819
000370 ee f0 c4 3c e9 fe b2 bd 54 61 8d bd 83 37 cc 3d
       0.024040665 -0.087400265 -0.069033295 0.099715255
000380 27 ff ba bd a7 62 b6 bc 88 40 a6 3c 7a 31 5a bd
       -0.09130698 -0.022263838 0.020294443 -0.05326984
000390 1c 40 b7 3d eb 6b 44 3d 2e f6 d6 3a 52 44 a0 bb
       0.08947775 0.04795448 0.0016400272 -0.004890957
0003a0 5c 6d 63 3d 36 d1 50 3d 3f d8 bb 3d bb ff 8d bd
       0.055524215 0.05098077 0.09172105 -0.06933542
0003b0 bc 9d f2 bc 9b a3 ae 3d 71 9c 96 bd 60 71 a0 3d
       -0.02961623 0.08527299 -0.073540576 0.078341246
0003c0 15 2c 91 bd 5a cb 99 bd ed 3f 14 bd 87 64 9d 3d
       -0.07088486 -0.07509489 -0.036193777 0.0768519
0003d0 78 5b d5 bd a9 b1 45 bd a7 77 eb 3d c1 88 e9 3c
       -0.10417837 -0.048265133 0.11497431 0.028507592
0003e0 97 ed d6 bd f3 cc 96 3d 53 ec a4 bd 12 02 68 bd
       -0.104945354 0.0736331 -0.08052888 -0.0566426
0003f0 95 c3 80 3c 96 55 7a 3d 3a 24 c3 bc 74 1f dc bd
       0.01571826 0.061116777 -0.023820985 -0.10748187

base_encoder.encoder_rnn.weight_ih_l0_reverse f4 [400, 1]
000000 d1 61 12 3d 7b 9d 81 bd 0a 8d 58 3d 01 70 16 3e
       0.035737816 -0.06328865 0.05286888 0.14691164
000010 23 4c 6e bd 17 f0 76 bd f5 8c 68 bd cf 67 29 3d
       -0.05817808 -0.06028756 -0.056775052 0.041358765
000020 fa 55 b1 bd 67 f0 32 bd 4d c4 97 3d 87 72 c4 3d
       -0.08658977 -0.043686297 0.07410488 0.09592157
000030 bf 3c 11 3e 8e d5 db bb 67 97 76 3d 7e 85 65 bd
       0.14183329 -0.0067088073 0.060202982 -0.05603551
000040 a5 db b7 bd e2 1c 87 bd 93 c4 0f 3e 5a 22 6c bd
       -0.08977441 -0.06597306 0.14039831 -0.057649948
000050 7b 6e 19 bd 4e e2 d8 bd 56 5b 0d 3d 47 b6 8f bc
       -0.037458878 -0.10590039 0.034510933 -0.017542971
000060 83 41 a0 3c a4 74 7f 3d 09 26 93 bc 4e 3b 16 bd
       0.019562488 0.062367097 -0.017962473 -0.03667765
000070 45 7c 0d bd 34 4e 48 3d 5e 3c 0d 3e 67 c3 dd 3c
       -0.03454234 0.048902705 0.1379256 0.027070714
000080 3a 98 92 bd 3f a1 0c 3e 2c b9 a4 3d 3e fc fb bc
       -0.07157941 0.13733386 0.08043131 -0.030759927
000090 60 b4 86 3d 57 af 8f bd 1a 98 03 3d d8 e6 d8 ba
       0.065773726 -0.07015865 0.032127477 -0.0016548289
0000a0 d8 ed e7 bd 18 07 c8 3d 10 3f 8d 3c 5a e3 0b bd
       -0.11324662 0.09766978 0.017241985 -0.034152366
0000b0 b5 80 04 bd c8 53 2e 3d af 5d 6c 3d 8f 72 3a bc
       -0.032349307 0.04256037 0.05770653 -0.011379852
0000c0 46 a4 d2 3d 04 a2 82 3d bc 88 48 3d fb dd 91 bc
       0.10285239 0.06378558 0.048958525 -0.017806044
0000d0 74 fa f8 3d f2 c7 17 3d c0 60 9d bd 0e fe c6 3d
       0.12157145 0.037055917 -0.07684469 0.09716426
0000e0 cd c7 47 bd a6 b2 e5 3c 67 32 f6 3d a2 4b e5 bd
       -0.04877453 0.028039288 0.12021332 -0.111960664
0000f0 46 13 4d 3d 83 2c 84 bb 69 2b 94 3c d5 31 e7 bc
       0.05006721 -0.0040336265 0.018087106 -0.028222004
000100 cf c2 93 3d e1 79 d1 3c b5 ba 20 3d 11 f5 23 bd
       0.07214891 0.025570812 0.039240558 -0.040028635
000110 77 7b 36 bd 57 2a 5e 3d 46 95 86 3d 2b 63 b6 bd
       -0.04455134 0.054239597 0.065714404 -0.089056335
000120 88 00 67 3d 28 92 00 bd 3c 55 0c bc 85 7a 4e bd
       0.05639699 -0.031389385 -0.008565243 -0.050409812
000130 03 e6 22 be a9 60 bc bd 58 69 d8 3d f2 9d 1e be
       -0.15908055 -0.09198124 0.10566968 -0.15489939
000140 51 34 bd 3d 6d 02 04 3e 95 83 5a bb e1 db 3b 3d
       0.09238494 0.1289155 -0.003334259 0.04586399
000150 b8 c0 ac 3d fc d3 e3 3d 95 d4 01 bd f3 8a 12 bd
       0.08435196 0.11124417 -0.031696875 -0.035777044
000160 25 fd 92 3d dd 92 0e 3c 9e 98 a0 bc 33 09 6e bd
       0.0717719 0.008702007 -0.019604024 -0.05811424
000170 e6 1f b0 bc e0 05 2b 3d ec 33 e4 3d 1b 30 8c 3d
       -0.021499585 0.04175365 0.11142716 0.06845113
000180 b4 1e 96 3d 91 64 a1 3c 24 81 9f bd d7 75 f6 3d
       0.07330075 0.019701274 -0.077883035 0.12034195
000190 a9 0f f4 bd 94 8c c4 bd f0 2a 96 bd 83 14 18 3e
       -0.119170494 -0.09597126 -0.073324084 0.14851575
0001a0 ff 27 a2 3d a1 66 cf bd 03 ac cc bd dd 74 ce bd
       0.07917785 -0.10126997 -0.09993746 -0.10080884
0001b0 d7 8d bb bd 7a 83 9c 3b e2 5c 3c 3d f6 1b 14 3e
       -0.09157913 0.0047764154 0.045987017 0.14463791
0001c0 08 35 47 bd 9f 10 9f bc 06 38 85 bd 98 60 3d bd
       -0.04863456 -0.019417105 -0.06504826 -0.046234697
0001d0 17 7f 32 bd 43 40 26 bd 1b bf 1f 3e 7f 41 95 3d
       -0.043578234 -0.04058863 0.15600245 0.07287883
0001e0 5d f4 b5 bc ff e9 2b bc dd 5d 9b 3d e9 80 74 bc
       -0.022211248 -0.010492801 0.075862624 -0.014923313
0001f0 fc 8d 96 bd e8 9f 2a 3d 57 2a 2b bd 23 58 0b 3e
       -0.073513 0.041656405 -0.041788425 0.1360784
000200 93 a4 0b 3c 7f 4e b5 3d 0c bb aa 3d 6f 2d cf 3d
       0.008523124 0.088528626 0.083364576 0.10116088
000210 d9 50 ab bc e2 27 85 3d a5 55 4e bd 46 43 e6 bd
       -0.020912575 0.06501748 -0.050374646 -0.112433
000220 cc dc 8c 3d d5 31 68 bd 08 12 16 bd a7 1e 07 3e
       0.06878051 -0.05668815 -0.03663829 0.13195287
000230 07 52 0e bd af 9a cb 3d 0b 4b f9 3d e8 cf eb bd
       -0.034746196 0.09941613 0.121725164 -0.11514264
000240 14 3f a6 bc 2c b8 97 bd 99 8a ca bd 4f 8e 37 3d
       -0.02029375 -0.07408175 -0.09889717 0.04481345
000250 cb 54 67 3d eb eb 4d bc 3d 94 a1 bd d6 a7 8c 3d
       0.05647735 -0.012568454 -0.07889602 0.0686795
000260 20 31 a1 3b ad cb ef bc ab 76 bc 3c 0e 54 21 3e
       0.0049191862 -0.029271925 0.023005804 0.1575472
000270 3f 95 1d 3d 96 4e 2a be 8a 6d 36 3e d9 44 fa bd
       0.03847241 -0.1663154 0.17815223 -0.12220163
000280 d9 5a 01 3d 25 d2 da bb ec 3f db bc 64 14 45 bd
       0.03158078 -0.006677883 -0.026763879 -0.04811515
000290 15 02 aa 3d d6 ac a4 bd 9f 3e 21 bd ff c0 a7 3c
       0.08301178 -0.08040778 -0.03936636 0.02047777
0002a0 3e 67 60 3d 6a 9d b2 3b 78 d4 cf 3c b0 19 73 3d
       0.05478596 0.005450894 0.025369868 0.05935067
0002b0 b8 99 8e bd c5 f7 0b 3d b0 34 0e be d8 e2 9c bd
       -0.06962913 0.03417184 -0.13887286 -0.076604545
0002c0 76 82 16 3c 23 42 04 bd bf 57 75 bc 20 28 12 bd
       0.009186378 -0.032289635 -0.014974534 -0.035682797
0002d0 58 e8 a6 bb 57 df f3 3d 9c 64 c3 bd f0 31 1b 3b
       -0.0050936155 0.11907833 -0.09540674 0.0023680888
0002e0 d8 d5 ce 3d 5e f0 58 bd f3 76 df 3c 07 9c e4 3d
       0.10099381 -0.052963607 0.0272784 0.11162572
0002f0 fa b3 64 3b 75 9c 8a 3d 19 32 e5 3d 7f 66 a9 bc
       0.0034897313 0.06768123 0.11191196 -0.020678757
000300 3f 99 3a bd f8 54 68 39 8f bd bd 3c 16 a6 30 3d
       -0.045556303 0.00022156897 0.023161678 0.043127142
000310 78 e6 1a bc ed fc a3 bd 8d b9 8e bd d7 9c 88 3d
       -0.009454362 -0.08007226 -0.06968985 0.0667054
000320 b5 a7 bb bc cf 2c 96 bc 0a 9b 78 3c 7d 3e 93 3d
       -0.022907117 -0.018331913 0.015173683 0.07189653
000330 b0 bc e7 3c 52 35 2b 3d a0 7d 74 bd b1 62 2f 3d
       0.028288215 0.041798897 -0.059690118 0.04281873
000340 55 a8 77 3d 46 7d ef bc be b1 e8 bc b5 80 5d bc
       0.06046327 -0.02923454 -0.028405067 -0.013519456
000350 5c 46 d5 bc 05 c3 cf 3c 18 36 bb bb e2 4d 62 3d
       -0.026034527 0.025361547 -0.0057132356 0.055250056
000360 aa 2b 4f 3d a2 ae 99 bb 6b e4 81 bd 27 03 16 bd
       0.05057875 -0.0046900073 -0.063423954 -0.0366241
000370 3b da f9 3c 0e 71 8d bd 08 6d 8d 3d 27 4e 0d 3c
       0.030499568 -0.06906329 0.06905562 0.00862459
000380 fd 19 35 bc f3 9c b5 3c c0 7e e9 bb 37 91 f7 3c
       -0.011053559 0.022169566 -0.0071257055 0.030220611
000390 a9 2d 91 3d 35 fe 1a bd 13 20 95 3d bf f5 cf 3c
       0.07088787 -0.037840087 0.07281508 0.025385736
0003a0 74 2b 4e bc 0d da 7c bd 98 7e 8a bc 61 30 d1 3c
       -0.012583602 -0.061731387 -0.016906068 0.025535764
0003b0 11 9c ad bd b9 6b 4f bd 15 27 23 bc 6b a7 81 bd
       -0.08477033 -0.05063984 -0.009958048 -0.063307606
0003c0 ae fe bb bc 60 a1 ba 3c 6f 62 b3 3b 1b 13 34 3d
       -0.02294859 0.022782028 0.0054743807 0.043963533
0003d0 86 63 66 bd fc f5 a7 3c 2c 06 57 3d 22 01 5a 3d
       -0.056247257 0.020503037 0.05249612 0.053223737
0003e0 5b cf ae 3d b2 10 04 bb db 65 55 bc 65 9c 7c 3c
       0.08535644 -0.0020151553 -0.0130247725 0.015418147
0003f0 8a 03 18 bd 44 4a 67 bc 3d 21 1d 3c 39 bf 2b 3d
       -0.03711275 -0.014116827 0.009590444 0.04193041

base_encoder.encoder_rnn.weight_hh_l0_reverse f4 [400, 100]
000000 38 5e 31 3d bf ab 8d 3c 1c 11 7c bd 78 d9 73 bc
       0.043302745 0.017293809 -0.061539754 -0.014883392
000010 fb e3 4d 3d 4f f3 b8 bd ea 6d 03 3d 03 b5 25 bd
       0.050266247 -0.090307824 0.032087244 -0.04045583
000020 0d 4f 6e bd 25 f7 c4 bd 46 db 63 3d 45 0a 29 bd
       -0.058180857 -0.096174516 0.055629037 -0.04126956
000030 ad 8a 7a bd 01 55 bb bd 3f c3 ae bd fb 28 97 3d
       -0.061167408 -0.091470726 -0.08533334 0.07380863
000040 46 18 4c 3d 07 fb 38 bd c2 f9 cf bc 1d 2a bf 3c
       0.049827836 -0.045161273 -0.025387648 0.02333551
000050 8a 47 90 bd 4f 01 db bb 14 06 99 bd 79 34 83 3d
       -0.07044895 -0.0066835056 -0.074718624 0.06406493
000060 24 35 83 bd 90 28 7a bd 98 1e 79 3d 79 8b 25 bd
       -0.0640662 -0.06107384 0.060820192 -0.040416215
000070 c4 65 a3 bd 79 ad b1 3d a9 b9 e5 bd e5 e7 bf bd
       -0.07978395 0.086756654 -0.112170525 -0.09370402
000080 c5 e4 1b 3c 03 86 60 3d 38 3c 6c bc 15 63 38 bd
       0.009514992 0.054815304 -0.014418654 -0.045016367
000090 7c ba 72 bd 19 f0 d3 3d 44 9d a0 3d 2c 63 c1 3d
       -0.059259877 0.10348529 0.07842496 0.09442744
0000a0 3b da b5 bd 16 9c 55 3d 91 0e a3 bd c0 60 2c 3d
       -0.08879515 0.05215081 -0.07961763 0.042084455
0000b0 e8 a6 a4 bd f1 cf 37 3c 1d 41 89 bd 0a 45 a6 bc
       -0.08039647 0.011219011 -0.067018725 -0.020296592
0000c0 06 9f 87 bd 53 d6 7f ba 72 f9 54 3d d5 3f e7 3c
       -0.06622128 -0.0009759415 0.051995702 0.02822868
0000d0 53 16 b5 3c 12 4a 5b 3c af b4 93 3d f0 ca 1b bd
       0.022105372 0.013384359 0.07212197 -0.038035333
0000e0 08 5b 0e 3d 11 b3 d9 bd 7f a6 e0 3c 6a 35 58 3c
       0.034754783 -0.10629857 0.027423142 0.013196329
0000f0 18 b3 ca 3d 9b 48 81 3c 18 52 9d 3d 1a 69 a2 bc
       0.09897441 0.015781691 0.07681674 -0.019825507
000100 03 31 85 3d 84 bb 25 bc f6 ad 96 bd 1b af 65 3d
       0.06503489 -0.010115508 -0.07357399 0.056075197
000110 19 44 d6 bb 30 71 9c bd a7 68 2f bd ba a3 b6 ba
       -0.0065388796 -0.07638776 -0.042824414 -0.0013934292
000120 00 e0 b0 3d 11 83 e7 ba 03 12 b2 3b 58 29 99 bd
       0.086364746 -0.0017662962 0.005434276 -0.07478589
000130 77 16 96 bd 67 2d a5 bd 49 cb 90 bd e4 96 cf 3d
       -0.073285036 -0.080653004 -0.070700236 0.10136202
000140 cc 9d 6f 3d a2 70 89 bd de 60 69 bd 0c fb a7 3b
       0.058500096 -0.06710936 -0.056977145 0.0051263627
000150 87 ef 15 bd f4 71 83 3c f6 94 ae 3d d7 b1 f4 3c
       -0.036605384 0.016045548 0.08524506 0.029869957
000160 73 a6 69 3c 72 da aa 3d 93 38 a4 bd 0c 9e 3c bc
       0.014260876 0.083424464 -0.08018603 -0.011512291
000170 4d 7a 8a 3d 5e a3 7f bd df d3 19 3d 54 d6 9f bd
       0.06761608 -0.06241166 0.03755557 -0.07804552
000180 88 51 8f 3d 2b 94 8f 3d 73 f8 84 3d 74 fa b7 bd
       0.06997973 0.07010683 0.064927004 -0.08983317
000190 b7 d8 19 bd b4 9a a2 bd e6 e1 f0 bc 45 2f 79 bc
       -0.03756019 -0.079396635 -0.029404592 -0.015209024
0001a0 b1 2f b9 3c 97 ef 2c bd ff 0a 79 3d fb 09 c7 3d
       0.022605749 -0.04222068 0.060801502 0.097187005
0001b0 5d b7 2b 3d a2 05 12 be 22 91 f9 bd ef 67 b4 bd
       0.041922916 -0.14259961 -0.12185885 -0.08808886
0001c0 e0 cd 1b 3e 87 23 bd bd 9e da 4b 3d 38 ea 04 3c
       0.15215254 -0.09235292 0.049769036 0.008112483
0001d0 fa df 13 3e f1 93 30 3c 93 4c 68 3d 7a 78 1a 3d
       0.14440909 0.0107774595 0.056713652 0.03771255
0001e0 e1 2a bb 3d 8a 91 f4 bb 3a da 83 bd a4 a8 bb bd
       0.09139038 -0.0074636387 -0.06438108 -0.09163025
0001f0 33 af a1 3d 12 a2 a9 bd 12 24 9b bd ce 49 68 bd
       0.07894745 -0.082828656 -0.07575239 -0.05671101
000200 59 bd e6 bc 1c 81 01 3e 90 a6 d5 3c 3a 51 dc bd
       -0.02816646 0.12646908 0.0260804 -0.1075768
000210 50 25 c6 bc fa a4 96 3d 64 b0 d9 3b 80 73 9c 3d
       -0.024187714 0.073556855 0.006643342 0.076392174
000220 ee 6e 15 3b d6 80 b6 3d 2f e6 22 3d 06 47 ed 3c
       0.0022801715 0.08911292 0.0397703 0.02896453
000230 59 d4 1d bd 11 38 0c 3c 4d 7b 93 3d 74 1b 3f 3d
       -0.03853259 0.008558289 0.07201252 0.04665704
000240 ff 99 d3 bc 3e 27 06 be 20 81 b4 bc a9 b8 08 be
       -0.025830267 -0.13100907 -0.022034228 -0.13351692
000250 57 dc 1a 3c 41 1a 3c bc 0a 8c 19 be f6 d0 c6 3c
       0.009451947 -0.011480869 -0.14994827 0.024269562
000260 41 6a 03 3e a4 f7 b2 bd fd a3 bc 3c 40 e2 88 3d
       0.12833501 -0.0873864 0.023027414 0.06683779
000270 3b cc d3 3c 08 95 2c bd 43 44 cc 3d d0 58 92 bd
       0.02585422 -0.042134315 0.099739574 -0.07145846
000280 05 a2 d6 bd 8a 47 eb 3d f2 e8 e9 37 47 fb a4 bd
       -0.104801215 0.11488254 2.7884238e-05 -0.0805574
000290 7d 54 78 bd e1 73 59 bb eb 76 d3 bd 99 cd b8 b9
       -0.06062745 -0.0033180641 -0.10325416 -0.00035248397
0002a0 7b 01 7b 3d ac 33 7d 3d 97 bb d6 3d ab 65 4e 3d
       0.06128071 0.061816856 0.10484999 0.050389927
0002b0 d8 79 88 bc a5 e0 71 3d f8 ef 99 bd 38 b7 1e 3b
       -0.016659662 0.05905213 -0.075164735 0.0024218094
0002c0 2d d4 53 bd e0 f1 98 bd cb c2 04 3e 50 81 ef bd
       -0.05171602 -0.07468009 0.12964933 -0.11694586
0002d0 0a de 1c 3e dd 7f 11 3c 4b 97 6a 3d 0d b5 05 bd
       0.15319076 0.008880583 0.05727319 -0.032643367
0002e0 95 e5 dd 3c f3 a7 13 3e 2b 77 ea bd c5 8a d5 bc
       0.027087012 0.14419536 -0.11448511 -0.026067147
0002f0 1a 93 0c be 9b 38 a1 3d da 2b 6e bd d0 4a d2 3d
       -0.1372799 0.07872125 -0.05814729 0.102681756
000300 2d ab 71 3c 1e 78 67 3d ec 9e 0a bd ea ba c1 bd
       0.014750284 0.056511037 -0.033842966 -0.09459479
000310 90 3a af bc b1 36 c0 3d 8c 98 11 bd f5 20 0c be
       -0.02139023 0.093854316 -0.03554587 -0.13684447
000320 55 d1 8a bb c7 6b 5e bd b0 b6 69 bd 71 09 69 3d
       -0.00423638 -0.054302003 -0.05705899 0.05689377
000330 13 c7 a5 3d 6d 83 d0 bc 57 3d 53 3d 2f d3 90 bb
       0.08094611 -0.025453294 0.05157217 -0.0044197063
000340 0c dc ef 3d 6a 6a bf bc 50 35 23 3d c4 fb 10 bd
       0.117118925 -0.023366172 0.039845765 -0.035396352
000350 e2 92 36 3d 42 82 0a 3d d6 0f 2f bd 49 3f fc bc
       0.044573672 0.03381563 -0.04273971 -0.030791895
000360 bf 91 ba 3b 21 94 84 3d f5 6d 1c 3d 20 32 7d 3d
       0.005693644 0.06473566 0.0381908 0.06181538
000370 66 20 1d 3d 55 fd 66 bd 7b af 0d 3c f4 72 ec bd
       0.038360976 -0.05639394 0.008647795 -0.11545363
000380 03 68 f2 3d 03 66 96 bd ec b3 98 bd dc ce a9 bc
       0.11836245 -0.07343676 -0.074561924 -0.020728521
000390 b7 48 cd 3d 8a 5c 94 3d 47 10 0f bd d0 db 13 bd
       0.10023635 0.07244213 -0.034927633 -0.0360983
0003a0 ee 63 25 3d ab 49 ea bd 85 e4 a2 bd b8 6a a4 bd
       0.040378504 -0.11439832 -0.07953743 -0.080281675
0003b0 30 ae 30 bd b2 22 db bc 7c a8 14 3c 32 f0 da 3c
       -0.04313487 -0.026749942 0.009073373 0.026725862
0003c0 56 86 7e bd 03 39 ae bc 71 86 88 bd f4 a1 27 bc
       -0.06213983 -0.02126742 -0.06666268 -0.010231484
0003d0 99 2a 9a bd a0 03 e9 bd f4 dd ad bc 39 ff 3b bd
       -0.07527656 -0.113776445 -0.021224 -0.045897696
0003e0 74 6f 68 3d 66 fe 69 bd 23 8d f1 bc fa b3 a4 bd
       0.056746915 -0.05712738 -0.029486245 -0.0804214
0003f0 79 ef a4 3d b8 50 25 bc 65 51 83 3d f2 5d 86 3c
       0.08053488 -0.010090046 0.06412009 0.016402218

base_encoder.encoder_rnn.bias_ih_l0_reverse f4 [400]
000000 67 3a b1 bd f7 bd dc bc b4 f6 2b 3d c6 e7 90 bc
       -0.086537175 -0.026946051 0.04198332 -0.017688643
000010 42 7e c1 b9 54 41 b0 ba 96 e5 d2 3d a7 25 fc bc
       -0.00036905898 -0.0013447204 0.10297696 -0.030779673
000020 c2 f0 72 3d b9 41 51 bd 24 f3 c0 3d bf 76 9a bb
       0.059311636 -0.05108807 0.094213754 -0.0047138627
000030 af ab dc 3d 74 b2 b7 bd b4 52 1a bd 12 8a 56 3d
       0.107749335 -0.08969584 -0.037676528 0.052377768
000040 13 ee 20 bd cd d3 59 3b 23 0e 39 3c 2a eb 9a 3d
       -0.039289545 0.0033237815 0.011294874 0.07564385
000050 b9 a1 69 3d 17 79 6c 3d 8b aa d2 3c c3 df b3 3d
       0.057038996 0.057732668 0.025716087 0.087829135
000060 d2 6a 58 bd 7f e3 a7 3b 95 9e de bb 85 3f 47 bc
       -0.052836247 0.005123555 -0.006793807 -0.01216114
000070 eb 73 2c 3d 6e 47 13 3d cd 6c 47 bc 96 a9 eb 3b
       0.042102735 0.035956793 -0.012171936 0.007191847
000080 83 2c f6 bb 4f 37 ed bc 3c 36 88 bd db b6 3b bc
       -0.0075126304 -0.028957037 -0.066509694 -0.01145717
000090 92 61 e3 3d 46 b7 d0 3d 2b a7 b1 3d a2 6d 6a bd
       0.111025944 0.10191207 0.08674463 -0.05723346
0000a0 94 0c 67 3d 76 59 04 bb d2 ec ef 3a f8 43 ad 3b
       0.05640848 -0.0020194924 0.0018304831 0.0052876435
0000b0 32 ab cc bc 7d d6 4f 3b c3 a9 4c bd 39 f0 95 3d
       -0.024983976 0.0031713538 -0.049966585 0.073212095
0000c0 74 f5 9c 3d 4d 81 06 bd 1d 8d 81 bd 3a 17 8f bd
       0.07664004 -0.032838155 -0.06325743 -0.06986852
0000d0 b4 1e c7 3b 32 d0 9a bd 59 e4 fe 3d e4 f7 96 3d
       0.006076658 -0.07559241 0.124458976 0.073715
0000e0 88 2a 91 3c 2b cf 89 bd ae 87 93 3d 9e 54 a4 3c
       0.017720476 -0.06728967 0.07203613 0.02005988
0000f0 1e f8 ab 3d 23 70 8c bd 08 35 d5 bc 5a 7c 7c 3d
       0.08396934 -0.06857326 -0.026026264 0.06164203
000100 e0 41 a3 bd 7a 57 ae 3d 3b a2 b6 3c 63 00 0c 3d
       -0.07971549 0.085127786 0.022294154 0.034180056
000110 d1 e0 82 3d 68 b0 23 3d 8a fb 30 3d 4f 45 01 bb
       0.063905366 0.039963156 0.043208636 -0.001972515
000120 97 8d fc 3c dc a4 46 3d 7c 89 1a 3d 4a 62 ce 3d
       0.030829234 0.048497066 0.03772877 0.10077341
000130 f4 02 46 bd 65 82 02 3d 84 d4 74 bd 7a a3 00 3d
       -0.04834266 0.031862635 -0.059772983 0.031405903
000140 64 6b 9b bd 8c de 67 3a b7 6b a5 3d 4a ec 01 3e
       -0.075888425 0.0008845113 0.080771856 0.12687793
000150 0e 1d df 3c 1f f9 8c bc 1d b2 f9 3c f1 98 b8 bd
       0.027235534 -0.017208634 0.030480439 -0.09013546
000160 f7 f9 11 3d 69 e8 64 3c 81 8e 5f bd 2a 2a fb 3d
       0.035638776 0.0139714265 -0.05457926 0.122639015
000170 6d 1b 9d 3d 63 7d 4a 3d 0c e5 8a bd bf ed a0 3a
       0.07671247 0.049435984 -0.067819685 0.0012277885
000180 99 2c 80 bd 76 e9 e4 bc c7 a9 c7 3d bc c7 3e 3d
       -0.06258506 -0.027943354 0.09749179 0.0465772
000190 56 85 b3 bd c8 b7 49 bc 2d 4b 1a 3d 70 15 9e 3c
       -0.08765666 -0.012311883 0.03766935 0.019297332
0001a0 4b 74 be 3d 3c 1b cd 3d 09 26 80 3d 3b 94 8a 3c
       0.09299525 0.1001496 0.06257255 0.016916385
0001b0 a5 90 59 3d 9f 10 42 bc 62 b6 ba 3d f1 0b c8 3b
       0.05311646 -0.011844783 0.09116818 0.006104939
0001c0 92 5c c6 3c d1 8b df 3c 10 d0 0f 3d e2 bc 4e 3d
       0.024214063 0.02728835 0.035110533 0.0504731
0001d0 6b a6 da 3d e7 bf d3 bc 58 4b 3b bd de 5d ec 3c
       0.10676273 -0.025848342 -0.04572615 0.028853353
0001e0 0e e9 1a bc 41 8a 59 bb ef c8 69 3c 4f 20 8c bd
       -0.009454979 -0.0033193978 0.014269098 -0.068421
0001f0 60 a1 29 3c 86 e8 6d 3b c0 9f 11 bd a5 a6 eb bb
       0.010353416 0.0036301925 -0.03555274 -0.0071914964
000200 02 c7 b5 3c a2 e9 c5 3d 0c cd 12 bd 21 33 0b bd
       0.02218962 0.096637025 -0.03584008 -0.033984307
000210 86 fd 16 3d dc 94 3d 3c b5 7f 81 bd af 0b 8a bb
       0.036862873 0.011571135 -0.06323186 -0.0042128186
000220 10 66 b5 3b 9c be d3 3d 29 a0 71 3d c3 f6 89 bd
       0.0055358484 0.1033909 0.05899063 -0.06736519
000230 4a 13 b0 3d 87 fa 57 3d e7 94 0b 3d aa b5 a9 3b
       0.08597429 0.052729156 0.03407755 0.0051791267
000240 8e ee c3 3d 0d e6 5c 3c ab 36 b1 3a d6 84 b4 bd
       0.09566985 0.013482583 0.0013520321 -0.08814399
000250 7f 93 10 bd 0d 16 a6 bd 14 9a a5 3d ea db 9b 3d
       -0.035296913 -0.081096746 0.08086029 0.07610305
000260 85 dc 7b bd 0d 77 81 3d fd 65 4b bd 6d 96 ae 3d
       -0.0614896 0.06321535 -0.04965781 0.08524785
000270 f6 cf bf 3d 24 78 88 bc e9 91 0b bd e7 02 ad 3d
       0.09365837 -0.01665885 -0.034074698 0.08447819
000280 fb 7f 71 bd 16 dd fa 3d b9 64 b1 3c b7 09 50 38
       -0.058959942 0.122492 0.021654474 4.9600112e-05
000290 7b ca 8a 3c 79 ff 11 bd 41 0e 97 bd 12 c3 fd bb
       0.016942253 -0.03564403 -0.073757656 -0.0077442015
0002a0 5f 51 76 3c 59 54 47 b9 e6 11 7c 3d f4 67 95 bd
       0.015034049 -0.00019009541 0.061540507 -0.07295218
0002b0 6c fd 0d 3d e7 c8 07 bd 5e 01 34 bd ae 5d 84 bd
       0.03466551 -0.03315058 -0.043946616 -0.064631805
0002c0 49 7a e5 3d 12 bd 95 3d 96 c1 9d 3b 51 a8 81 bc
       0.11204965 0.07311453 0.004814337 -0.01582733
0002d0 42 2a 5c bd 5d d5 48 3d 40 24 b0 3d 59 e7 b0 3b
       -0.053751238 0.049031604 0.08600664 0.0053986725
0002e0 b4 bc 39 3c e1 3f 84 3d 95 69 ed bc 4f 53 9f 3d
       0.011336494 0.064574964 -0.02898101 0.07779562
0002f0 2d 31 a2 3d 21 40 a6 bd 6d 35 26 3d f3 91 85 ba
       0.07919536 -0.081177 0.040578295 -0.0010190591
000300 e5 12 bb bc 50 fe 07 3e d2 1f 46 bd 00 dc c1 3d
       -0.022836158 0.13280606 -0.04837019 0.0946579
000310 ca 95 8f bd 09 c0 56 3a 0a d5 b8 3d 94 7b 81 bd
       -0.07010992 0.00081920676 0.09025009 -0.06322399
000320 b3 42 2f bd a1 e7 2a 3d 71 16 c4 bc 13 5c 9f 3d
       -0.04278822 0.041724805 -0.023936482 0.07781234
000330 9d 00 9b 3d 45 b3 9b 3c 3f 71 90 ba b2 50 44 3d
       0.07568476 0.01900638 -0.0011020078 0.04792852
000340 52 f7 4f 3d e1 8e 3b bb d6 f9 6e bd 27 57 0b bd
       0.050772972 -0.0028619098 -0.05834373 -0.03401866
000350 c8 10 61 3d 6c 8a fd bc 3e cb 92 bd 37 6d e9 bc
       0.054947644 -0.030949794 -0.071676716 -0.02849446
000360 70 51 d8 3d 6d cd b0 bc ee 2b a3 bd 17 4f b5 bd
       0.10562408 -0.02158233 -0.07967363 -0.08852976
000370 1d 00 d3 3d 82 7b 28 3c 35 c6 8e bd ca f3 aa bd
       0.10302756 0.010283353 -0.06971399 -0.0834728
000380 37 5a 9d 3d c0 54 03 bd 84 d7 f9 3c 4c 65 ab bd
       0.07683223 -0.032063246 0.030498274 -0.0836893
000390 31 6f 39 bd 0d 52 18 3d 7d c4 9e bb 48 9c 47 bd
       -0.045272056 0.037187625 -0.0048452006 -0.048733026
0003a0 e0 78 5e 3d fb 39 05 bd 7b 42 8e 3d 9c 21 42 bd
       0.054314494 -0.032525998 0.06946274 -0.047395334
0003b0 70 ae ea 3c b1 9e 47 3d 26 bd a0 3d 20 d5 76 3d
       0.028647631 0.048735324 0.07848577 0.060261846
0003c0 50 2c b6 3d 50 07 be 3c 1c fe 07 3d dd 19 89 3a
       0.08895171 0.023196846 0.033201322 0.0010459978
0003d0 78 4b f7 bd 23 01 c2 bd 75 0c 5d 3d b4 dc b4 bd
       -0.120749414 -0.09472873 0.053966958 -0.08831158
0003e0 22 03 8b bd 7c 84 ee 3c ca fb ce bd 41 5b a0 bd
       -0.06787707 0.029115908 -0.10106619 -0.07829905
0003f0 28 6f 09 3d 6c 3b d4 bd fc 23 46 bd 91 f0 85 3d
       0.033553272 -0.10362896 -0.04837416 0.06540025
