svdd_sin_weights_140.pt (torch, 331447 bytes, 8 tensors)

base_encoder.encoder_rnn.weight_ih_l0 f4 [400, 1]
0.06212799 -0.07090589 -0.08254175 -0.018095212 -0.06760699 0.06523491 -0.03508022 0.046498872
-0.014380882 0.018795777 0.011914424 -0.033788566 0.10482749 -0.06915757 -0.056796636 -0.1132755
-0.066803806 -0.042699467 0.08951755 0.13057981 0.027888376 0.01832332 -0.08823658 -0.012663604
-0.015338661 -0.03137148 0.08433275 -0.0056763855 -0.16581215 -0.06421791 0.020203479 0.0070086173
0.103560336 -0.089305185 -0.046180554 -0.124319635 -0.015649974 0.016362058 -0.00020683125 0.020815415
0.04370627 -0.024600621 0.025898881 -0.005748947 -0.07729368 0.050891537 0.059934426 -0.024325633
-0.0770552 -0.13817114 -0.02364641 -0.0680363 0.03800735 0.08048325 0.10647706 0.044411834
-0.027702276 -0.09419012 0.049830824 0.024888752 -0.122207314 -0.011206064 0.082333006 0.12529781
-0.009537312 -0.10670051 0.04111708 -0.10913887 -0.15874198 -0.09169037 0.03678759 0.013844658
0.038243864 0.040159717 0.008659788 0.053203933 -0.03394508 -0.005619969 -0.060542833 0.035100613
-0.06852292 -0.042255644 -0.07044064 0.013408712 0.04022166 -0.004763534 -0.089644365 0.015575452
0.0132432105 0.051883522 0.043913476 -0.0075627766 -0.009502238 -0.015992474 -0.07877248 -0.091928475
0.056143187 0.009830132 0.040790636 -0.05632578 0.10063303 -0.055597346 0.010365841 -0.011228744
-0.005713309 -0.068881206 0.10025442 0.030502835 0.044279486 0.050285168 0.012767142 0.034309845
0.16456185 -0.10125624 -0.033304177 -0.070543304 0.0040401346 0.03319221 -0.073041245 -0.008616675
0.002535418 0.17452934 0.033516802 -0.05331092 0.06808425 -0.08838371 -0.07527637 -0.07358004
0.0031575141 -0.011561088 -0.06442808 -0.02896868 0.13146816 0.08114136 0.10492471 -0.04230268
-0.006690803 0.06499108 -0.10752061 8.351325e-05 -0.10532346 -0.017409405 -0.11933133 0.03084469
0.007424713 -0.02584612 0.13759491 -0.06992823 0.01559182 -0.0570826 0.06660914 0.07948825
-0.019535905 0.104579605 -0.06829062 -0.09657296 -0.0846439 -0.058054876 0.069639154 -0.044359077
-0.13619004 -0.044419393 0.069934264 0.12798367 -0.0010147495 -0.12522997 0.021446569 -0.13815206
-0.1579482 -0.061752748 -0.060108803 0.10400969 0.0030037058 0.073548354 0.082556725 0.1721078
0.0119489925 -0.04851623 -0.022816474 0.058151856 0.005118505 0.029130835 -0.14726688 0.010549745
-0.08233121 0.14485577 -0.09839869 -0.19794516 0.054197155 -0.026474793 0.033710994 0.025487974
-0.070611134 -0.028350836 0.08258393 -0.1390923 0.043135922 0.06643551 0.20027892 -0.093308605
0.025799286 -0.04121218 0.06728927 -0.01279662 0.007574126 0.0148726525 -0.01310043 0.007197823
-0.0034324576 0.02107544 -0.0070772176 0.006601641 -0.0416914 0.0263306 0.022546526 0.062044755
0.044137694 -0.03158107 -0.037889 0.040978987 -0.036102183 0.058257096 -0.02284153 0.0046979124
0.011937137 -0.030623157 0.001397988 0.025830239 0.015405203 0.055161703 -0.015936082 -0.061784834
0.050675202 -0.0050346083 0.0004096879 0.019970726 -0.043528408 0.037770282 0.018311225 -0.009397054
-0.003965517 -0.0074686795 0.012139236 0.00093667564 -0.023805255 -0.000495065 -0.06356406 -0.013812892
-0.04628282 0.06032704 0.029764641 -0.009502571 -0.00921407 0.025654849 0.00035927747 -0.009639159
00000000: eb79 7e3d 1b37 91bd a60b a9bd 693c 94bc
00000010: 8975 8abd e199 853d 47b0 0fbd 9a75 3e3d
00000020: ca9d 6bbc 9af9 993c b734 433c e165 0abd
00000030: ccaf d63d 7ca2 8dbd 97a3 68bd fcfc e7bd
00000040: 6fd0 88bd a3e5 2ebd fa54 b73d b7b6 053e
00000050: 2a76 e43c ca1a 963c 61b5 b4bd 017b 4fbc
00000060: 024f 7bbc 627f 00bd a6b6 ac3d f900 babb
00000070: a9ca 29be ae84 83bd c481 a53c 8ba8 e53b
00000080: 7117 d43d a3e5 b6bd d227 3dbd 4b9b febd
00000090: 6034 80bc b909 863c d7e0 58b9 1785 aa3c
000000a0: 5905 333d 3e87 c9bc e429 d43c aa61 bcbb
000000b0: 264c 9ebd a573 503d cd7d 753d 8d46 c7bc
000000c0: 1ecf 9dbd bc7c 0dbe 1eb6 c1bc 9e56 8bbd
000000d0: 98ad 1b3d 67d4 a43d a510 da3d 2fe9 353d
000000e0: e2ef e2bc c0e6 c0bd 681b 4c3d 7fe3 cb3c
000000f0: d447 fabd a499 37bc 359e a83d 124e 003e
00000100: 6342 1cbc cc85 dabd 626a 283d 3384 dfbd
00000110: 428d 22be 29c8 bbbd 95ae 163d b4d4 623c
00000120: 99a5 1c3d 847e 243d c9e1 0d3c 5eec 593d
00000130: ff09 0bbd b827 b8bb c3fb 77bd a9c5 0f3d
00000140: bf55 8cbd 4114 2dbd 2f43 90bd 37b0 5b3c
00000150: 78bf 243d 6b17 9cbb 7797 b7bd 2e30 7f3c
00000160: 0dfa 583c d183 543d 9ede 333d 2bd1 f7bb
00000170: 46af 1bbc a602 83bc 7753 a1bd ff44 bcbd
00000180: 66f6 653d 900e 213c 1514 273d dcb5 66bd
00000190: b118 ce3d 0bba 63bd 7dd5 293c c4f8 37bc
000001a0: b636 bbbb 9711 8dbd 3052 cd3d 15e1 f93c
000001b0: 685e 353d d2f7 4d3d 462d 513c 7b88 0c3d
000001c0: e782 283e 6e5f cfbd f669 08bd 0279 90bd
000001d0: 1b63 843b 8ef4 073d a696 95bd f42c 0dbc
000001e0: 4129 263b d2b7 323e ea48 093d 8d5c 5abd
000001f0: c16f 8b3d 8502 b5bd 7f2a 9abd 22b1 96bd
00000200: 4cee 4e3b b86a 3dbc dff2 83bd ba4f edbc
00000210: 979f 063e 712d a63d c4e2 d63d 9345 2dbd
00000220: 863e dbbb 0b1a 853d c433 dcbd d623 af38
00000230: d4b3 d7bd 2b9e 8ebc fc63 f4bd 01ae fc3c
00000240: 024b f33b 3ebb d3bc aee5 0c3e 8836 8fbd
00000250: d574 7f3c 72cf 69bd 5f6a 883d bcca a23d
00000260: c309 a0bc d52d d63d f4db 8bbd 0bc8 c5bd
00000270: c859 adbd f3ca 6dbd f99e 8e3d ddb1 35bd
00000280: 6775 0bbe 1cf1 35bd b239 8f3d 270e 033e
00000290: 5801 85ba 493c 00be b7b0 af3c bc77 0dbe
000002a0: 2cbd 21be 73f0 7cbd a634 76bd 0803 d53d
000002b0: d2d9 443b 85a0 963d 8013 a93d 073d 303e
000002c0: b5c5 433c f4b8 46bd 9de9 babc a430 6e3d
000002d0: 22b9 a73b caa3 ee3c 21cd 16be d6d8 2c3c
000002e0: 449d a8bd 1255 143e 4185 c9bd 23b2 4abe
000002f0: d6fd 5d3d aae1 d8bc 8a14 0a3d 28cc d03c
00000300: 929c 90bd 0340 e8bc c321 a93d 366e 0ebe
00000310: 4baf 303d 570f 883d eb15 4d3e 9518 bfbd
00000320: 0659 d33c 1ace 28bd f5ce 893d eaa8 51bc
00000330: 6030 f83b 6dac 733c 30a3 56bc b7db eb3b
00000340: 15f3 60bb 67a6 ac3c 01e8 e7bb 9452 d83b
00000350: 9ac4 2abd 45b3 d73c 7eb3 b83c a422 7e3d
00000360: bac9 343d 275b 01bd 7f31 1bbd 95d9 273d
00000370: e2df 13bd fe9e 6e3d 291e bbbc f2f0 993b
00000380: fb93 433c 6add fabc b13c b73a f099 d33c
00000390: 1b66 7c3c 3df1 613d 638c 82bc 1812 7dbd
000003a0: cd90 4f3d 5bf9 a4bb 61cb d639 a699 a33c
000003b0: d84a 32bd 03b5 1a3d 6c01 963c 1af6 19bc
000003c0: 2bf1 81bb d3bb f4bb a5e3 463c 3d8b 753a
000003d0: 3d03 c3bc 40c7 01ba e02d 82bd 784f 62bc
000003e0: 0e93 3dbd 7c19 773d fad4 f33c acb0 1bbc
000003f0: 9cf6 16bc 1e2a d23c 685d bc39 90ed 1dbc

base_encoder.encoder_rnn.weight_hh_l0 f4 [400, 100]
-0.048991386 0.06454032 -0.011988992 -0.055383917 -0.015498962 -0.08086483 -0.0676925 -0.052253257
0.07954674 -0.028414125 -0.017350217 0.03916023 0.03991416 -0.04895095 0.056043696 0.026678966
-0.10715137 0.09287454 -0.1139411 -0.051664624 -0.07971208 0.1193919 0.015450507 0.094210684
-0.001241166 0.04820554 -0.02159704 -0.09483629 0.011215096 -0.03302764 0.0029442033 -0.030580565
0.006894109 0.033743214 0.043301027 -0.10769062 0.07308521 0.013710589 0.06016006 0.065727666
-0.0825179 0.10470732 -0.12380897 0.07122588 0.002009596 0.036037937 -0.072195485 0.070927754
-0.033966534 -0.11482598 0.047281984 0.050397158 0.1057132 0.018545337 0.085280076 0.049927663
-0.044721954 -0.060898 0.040962994 -0.06932312 0.04954584 -0.07175276 0.080283955 0.041638542
-0.012969946 0.059010252 -0.06912154 0.00929157 -0.024260242 -0.06896525 -0.025113571 -0.036253717
0.10917816 0.09045071 0.068353266 0.08603341 -0.0998132 0.085316956 -0.003847629 -0.084681965
0.043392897 -0.059251875 -0.008740572 0.028213128 0.074915946 -0.051819503 -0.08580819 0.09166011
0.02014347 0.050107557 0.047018886 -0.028471056 0.07066606 -0.07851344 0.029559178 0.061852448
0.08507703 -0.062076285 -0.06946608 0.027752109 -0.06520742 -0.09527043 -0.07079816 -0.06785593
-0.02419164 -0.047414277 -0.049142778 -0.08208211 0.0774643 -0.035076935 -0.0538661 0.048623074
-0.09128228 0.081287935 0.07541972 -0.09283635 -0.069197275 -0.06520418 -0.06521974 0.037571505
-0.10212004 -0.061170246 0.036310658 -0.012300427 -0.039765786 -0.09697011 0.048887648 0.019203275
-0.035265278 -0.04653487 0.0004083543 0.0035493379 0.056757122 0.039401747 -0.009885104 -0.08133118
0.04660021 0.004343643 -0.046925593 0.094674625 0.0468271 -0.07371681 -0.07720638 -0.027526706
-0.064324014 0.034856383 -0.07438954 0.11067323 -0.05779759 0.06831767 -0.0032029143 -0.050496828
0.07619002 -0.055622846 -0.057358734 0.0061629335 0.088939995 -0.023541803 -0.07213218 -0.08056
-0.036265686 -0.022070121 -0.012084006 -0.061233 0.039320245 0.0016070791 -0.07132663 -0.064675614
0.045487326 -0.013224355 0.08173975 -0.018102614 -0.069620706 -0.059366707 -0.04316956 -0.039009143
-0.009428948 0.0049416735 0.02429574 -0.047960218 0.0818497 0.01617603 -0.016233869 0.07793622
0.013123976 -0.06294773 -0.06747811 0.06730876 0.069558635 0.07378232 0.0059271776 0.0803738
0.06058846 0.044163957 -0.011215482 0.10625666 0.03788141 -0.03419873 -0.025540568 0.08383327
0.01722763 -0.020365613 0.08939515 0.04708771 -0.081723794 -0.09212241 0.054119542 0.07474435
-0.05450572 0.033414617 0.017139612 -0.023750663 -0.038932845 0.035202555 0.021675734 -0.010190787
0.03254394 0.077792555 0.1638551 0.03094371 0.016836178 -0.14484493 0.06795404 0.042716727
0.055739164 0.090174705 -0.0068401205 0.06629998 -0.0059861024 0.07053503 0.074583806 -0.033279035
-0.023775484 -0.029052615 -0.042224642 -0.114725344 -0.0005009498 -0.06569297 -0.089036725 -0.033942748
-0.024568288 -0.041917436 -0.002991288 0.09107773 0.054300588 0.03820113 -0.037502464 0.17130286
-0.09462967 -0.10475019 -0.10459256 0.03291354 -0.07541925 -0.016637422 -0.05048636 -0.062300865
00000000: 31ab 48bd b72d 843d 7a6d 44bc 3fda 62bd
00000010: 5cef 7dbc 769c a5bd 5ea2 8abd 8307 56bd
00000020: 67e9 a23d bdc4 e8bc 0b22 8ebc 7a66 203d
00000030: 087d 233d cb80 48bd 138e 653d d98d da3c
00000040: 2d72 dbbd 0235 be3d f459 e9bd 499e 53bd
00000050: 1640 a3bd be83 f43d 2024 7d3c 88f1 c03d
00000060: 9fae a2ba 2c73 453d 47ec b0bc 8739 c2bd
00000070: 86bf 373c fe47 07bd 89f3 403b 1884 fabc
00000080: fae7 e13b 5336 0a3d 6b5c 313d e68c dcbd
00000090: b3ad 953d 61a2 603c 656a 763d 3a9c 863d
000000a0: 25ff a8bd cb70 d63d 8f8f fdbd e0de 913d
000000b0: 6db3 033b 849c 133d 3adb 93bd 9242 913d
000000c0: 7e20 0bbd e229 ebbd c1aa 413d 406d 4e3d
000000d0: 2a80 d83d 64ec 973c 52a7 ae3d f380 4c3d
000000e0: 5e2e 37bd 2e70 79bd d0c8 273d 48f9 8dbd
000000f0: 94f0 4a3d 1cf3 92bd ea6b a43d 2d8d 2a3d
00000100: e57f 54bc bcb4 713d 988f 8dbd ab3b 183c
00000110: 6abd c6bc a73d 8dbd faba cdbc c77e 14bd
00000120: cd98 df3d 393e b93d ccfc 8b3d 4932 b03d
00000130: dd6a ccbd a8ba ae3d 8128 7cbb bd6d adbd
00000140: c0bc 313d 18b2 72bd 9e34 0fbc 381f e73c
00000150: 886d 993d b040 54bd 34bc afbd 4cb8 bb3d
00000160: eb03 a53c 953d 4d3d e096 403d 223c e9bc
00000170: 5eb9 903d a8cb a0bd 1726 f23c fe58 7d3d
00000180: de3c ae3d b443 7ebd 3b44 8ebd 6458 e33c
00000190: 788b 85bd 251d c3bd a0fe 90bd 0df8 8abd
000001a0: 8c2d c6bc 7935 42bd f049 49bd aa1a a8bd
000001b0: 9aa5 9e3d d5ac 0fbd b3a2 5cbd fd28 473d
000001c0: 34f2 babd 4a7a a63d a775 9a3d fc20 bebd
000001d0: 4db7 8dbd c589 85bd ed91 85bd 94e4 193d
000001e0: 5024 d1bd a78d 7abd 7cba 143d bb87 49bc
000001f0: 73e1 22bd 4498 c6bd 6a3e 483d 3050 9d3c
00000200: 5372 10bd 599b 3ebd 6318 d639 029c 683b
00000210: 287a 683d ba63 213d 22f5 21bc f690 a6bd
00000220: dddf 3e3d 1e55 8e3b 0d35 40bd c5e4 c13d
00000230: c6cd 3f3d d7f8 96bd 611e 9ebd b07f e1bc
00000240: 4fbc 83bd 91c5 0e3d 8b59 98bd a5a8 e23d
00000250: 2abd 6cbd 22ea 8b3d fce7 51bb c3d5 4ebd
00000260: 8309 9c3d c8d4 63bd fef0 6abd 6ff2 c93b
00000270: 2c26 b63d bdda c0bc 09ba 93bd a4fc a4bd
00000280: 548b 14bd 66cc b4bc fffb 45bc 74cf 7abd
00000290: 440e 213d a0a4 d23a b213 92bd a674 84bd
000002a0: eb50 3a3d f7aa 58bc 2c67 a73d ef4b 94bc
000002b0: 4d95 8ebd 812a 73bd 91d2 30bd 0dc8 1fbd
000002c0: e07b 1abc c3ed a13b dc07 c73c ef71 44bd
000002d0: d1a0 a73d 9883 843c e4fc 84bc 069d 9f3d
000002e0: f205 573c bdea 80bd f731 8abd 2dd9 893d
000002f0: c274 8e3d 2f1b 973d c538 c23b 059b a43d
00000300: 9b2b 783d 44e5 343d 24c1 37bc 179d d93d
00000310: 8a29 1b3d f813 0cbd 743a d1bc c7b0 ab3d
00000320: f520 8d3c c9d5 a6bc ce14 b73d 0bdf 403d
00000330: ce5e a7bd adaa bcbd 74ac 5d3d 9113 993d
00000340: 6441 5fbd c4dd 083d 5f68 8c3c c090 c2bc
00000350: 0c78 1fbd 8e30 103d 4f91 b13c 42f7 26bc
00000360: cb4c 053d b451 9f3d a2c9 273e aa7d fd3c
00000370: 06ec 893c 3b52 14be 7d2b 8b3d bcf7 2e3d
00000380: c04e 643d 84ad b83d 1723 e0bb 49c8 873d
00000390: 1127 c4bb ab74 903d 65bf 983d 994f 08bd
000003a0: cec4 c2bc c0ff edbc bff3 2cbd 1ff5 eabd
000003b0: 2c52 03ba 098a 86bd e358 b6bd 8d07 0bbd
000003c0: 6f43 c9bc 9eb1 2bbd 7c09 44bb f686 ba3d
000003d0: 4b6a 5e3d ca78 1c3d 2f9c 19bd 046a 2f3e
000003e0: 33cd c1bd 4587 d6bd a034 d6bd 59d0 063d
000003f0: 6875 9abd 344b 88bc c9ca 4ebd 312f 7fbd

base_encoder.encoder_rnn.bias_ih_l0 f4 [400]
-0.005527007 0.100285485 -0.07619757 0.060641795 -0.0745691 -0.06672685 0.0747431 0.054229774
-0.03418091 -0.0775824 -0.019035488 0.035510015 0.07181973 -0.0129187815 0.082977146 -0.032975346
0.03452455 -0.040505193 0.016557397 0.060802154 -0.028192813 0.0947639 -0.08689113 0.031258453
0.078048415 0.10734409 0.09448718 0.10206746 0.03214473 0.028751759 0.07116683 -0.031993244
0.05884892 -0.05251694 -0.014648781 -0.05947726 0.0884467 0.051334325 -0.012830652 -0.025735255
0.02784953 -0.051629193 -0.011291474 0.05403971 0.09797039 -0.040402208 -0.04141459 0.06927726
0.13953805 0.024888683 -0.08698323 -0.059241757 -0.00015804046 0.08545177 -0.028520277 -0.05227358
-0.041145038 -0.02510783 0.022327704 0.08912642 -0.05157143 0.10272575 -0.032663796 -0.081788234
-0.08569861 0.1002334 -0.07229535 -0.003965529 0.004321733 0.018285407 0.02490475 0.07858284
-0.023337243 0.0799201 0.047318213 0.009872753 0.0014173023 -0.02407418 -0.06908955 0.081118345
0.07281223 0.10803048 0.059710834 -0.0149282385 0.058479965 0.08908768 0.105778195 0.022685133
0.03624527 -0.04534317 0.07196662 -0.03463638 0.113861896 0.09742497 0.04407976 -0.011352575
-0.023220008 0.034412436 0.0927869 0.04622302 0.01455824 -0.022442197 0.046086274 0.10521194
0.09603582 0.048382267 -0.0019703123 0.056863695 0.10411806 -0.024225002 -0.016428428 -0.025484867
0.014428872 0.069622844 0.06714977 0.05993047 -0.06988479 0.050631415 -0.08180711 0.096665554
0.032860175 -0.08715324 -0.05457223 -0.058006477 -0.028786711 -0.04190679 0.05210957 -0.034733046
-0.07920862 0.023827186 0.008265144 0.08464322 -0.048460748 -0.0042263106 -0.03547891 -0.03974746
-0.04857087 0.06165646 0.007164176 -0.028492292 0.0073770722 0.086142845 0.09363395 0.008710842
0.11841989 0.037688043 0.054003283 0.09377812 -0.024368979 0.013565488 -0.0011384233 0.0372408
0.023089157 -0.05280709 0.12276751 -0.04870575 -0.08316575 -0.06803694 0.03613246 0.0034723023
0.06622416 0.006360919 0.010697736 0.056811076 0.10050913 0.008396819 0.0012483108 0.09321311
0.087560534 0.06520737 0.02345501 0.06044021 0.07777732 0.09982484 0.022753378 -0.028778236
0.06550496 -0.0019363987 0.013774351 -0.075650826 0.0069995075 0.08003588 0.06888361 -0.0013178647
0.01376918 -0.06560165 0.02753123 -0.038028814 0.05252694 -0.009717789 0.009901276 0.03751883
0.08323198 0.10076281 -0.013609582 0.07286779 0.02677075 0.030059904 -0.016624216 0.0643909
-0.019354528 0.01756087 -0.022584306 0.0041741673 -0.09921244 0.021903384 -0.10146268 0.03291582
0.010945372 -0.07551792 0.10143908 0.0027249365 0.03403874 -0.0014105402 0.078364976 0.053163517
0.019871816 -0.04391832 0.0809895 -0.006519071 0.043829527 -0.047125615 -0.08877628 0.0038327586
0.028530985 -0.05654016 0.038625162 0.07091861 0.08279012 0.0075764237 0.01984595 -0.050190054
-0.03689659 0.07758934 -0.065459564 0.07205202 -0.04783805 -0.09761731 0.08704106 0.112046234
-0.08217278 0.009007595 -0.03765257 -0.017944632 -0.121623784 -0.04722814 0.05458826 0.08405396
-0.021509731 -0.059822302 -0.095536545 -0.03933166 0.11657863 -0.0062832558 -0.05610819 -0.020300193
00000000: e51b b5bb 7a62 cd3d 790d 9cbd 8863 783d
00000010: afb7 98bd 16a8 88bd e912 993d 0a20 5e3d
00000020: 4801 0cbd 85e3 9ebd 50f0 9bbc f372 113d
00000030: 3916 933d 4ca9 53bc ecef a93d 2811 07bd
00000040: 9d69 0d3d c6e8 25bd 61a3 873c ae0b 793d
00000050: 9df4 e6bc 9313 c23d faf3 b1bd dd08 003d
00000060: d9d7 9f3d 38d7 db3d 7f82 c13d bf08 d13d
00000070: 31aa 033d cf88 eb3c eabf 913d 590b 03bd
00000080: 910b 713d 011c 57bd 7101 70bc 6d9e 73bd
00000090: 8b23 b53d f143 523d a837 52bc bed2 d2bc
000000a0: b324 e43c 2279 53bd e0ff 38bc be58 5d3d
000000b0: b3a4 c83d c97c 25bd 58a2 29bd 3ce1 8d3d
000000c0: 10e3 0e3e 5ae3 cb3c 4424 b2bd 7ca7 72bd
000000d0: aab7 25b9 5601 af3d 5ba3 e9bc d21c 56bd
000000e0: b387 28bd f0ae cdbc 97e8 b63c ea87 b63d
000000f0: 903c 53bd e161 d23d 79ca 05bd 9780 a7bd
00000100: c182 afbd 2b47 cd3d 960f 94bd 45f1 81bb
00000110: 539d 8d3b 47cb 953c 0c05 cc3c 0af0 a03d
00000120: bf2d bfbc 26ad a33d bed0 413d 54c1 213c
00000130: c6c4 b93a 3737 c5bc d27e 8dbd 6021 a63d
00000140: 941e 953d 163f dd3d 5993 743d 9295 74bc
00000150: b088 6f3d 9a73 b63d 3da2 d83d 2cd6 b93c
00000160: ec75 143d c3b9 39bd 3c63 933d e0de 0dbd
00000170: 6d30 e93d be86 c73d fa8c 343d 2700 3abc
00000180: e337 bebc 0ef4 0c3d 0f07 be3d 5954 3d3d
00000190: af85 6e3c b3d8 b7bc f6c4 3c3d 5c79 d73d
000001a0: 6eae c43d 7c2c 463d 5b20 01bb e8e9 683d
000001b0: d93b d53d 8373 c6bc e994 86bc a4c5 d0bc
000001c0: 1367 6c3c 6c96 8e3d d285 893d a779 753d
000001d0: c21f 8fbd e362 4f3d 7c8a a7bd 97f8 c53d
000001e0: 6498 063d 667d b2bd 2187 5fbd 3398 6dbd
000001f0: 1cd2 ebbc 74a6 2bbd d870 553d 3d44 0ebd
00000200: 2138 a2bd 3b31 c33c 876a 073c 6d59 ad3d
00000210: c77e 46bd dd7c 8abb 5552 11bd 3cce 22bd
00000220: 40f2 46bd 7c8b 7c3d 77c1 ea3b ab68 e9bc
00000230: 5ebb f13b a96b b03d 28c3 bf3d ebb7 0e3c
00000240: 2186 f23d c75e 1a3d 8c32 5d3d be0e c03d
00000250: 74a1 c7bc c841 5e3c 2637 95ba cf89 183d
00000260: 7925 bd3c 3f4c 58bd 886d fb3d ae7f 47bd
00000270: ce52 aabd f456 8bbd a1ff 133d 918f 633b
00000280: 88a0 873d 426f d03b 8f45 2f3c bbb2 683d
00000290: bbd7 cd3d d092 093c 5c9e a33a 84e6 be3d
000002a0: f052 b33d 718b 853d b924 c03c 2790 773d
000002b0: b749 9f3d f770 cc3d 4b65 ba3c 56c0 ebbc
000002c0: 7727 863d c2ce fdba d1ad 613c d2ee 9abd
000002d0: 205c e53b dae9 a33d da12 8d3d 34bc acba
000002e0: 2098 613c 285a 86bd 2d89 e13c 1ac4 1bbd
000002f0: 7d26 573d 5c37 1fbc f638 223c 58ad 193d
00000300: 8775 aa3d bb5c ce3d b9fa 5ebc b53b 953d
00000310: 554e db3c 3040 f63c 822f 88bc 60df 833d
00000320: 638d 9ebc d0db 8f3c b902 b9bc 74c7 883b
00000330: e42f cbbd ba6e b33c aacb cfbd bdd2 063d
00000340: 3854 333c 24a9 9abd 4bbf cf3d d994 323b
00000350: 356c 0b3d e0e1 b8ba d17d a03d fdc1 593d
00000360: 38ca a23c b2e3 33bd d3dd a53d ee9d d5bb
00000370: 9786 333d ca06 41bd 57d0 b5bd 052f 7b3b
00000380: d0b9 e93c a896 67bd 6b35 1e3d c73d 913d
00000390: de8d a93d a643 f83b f993 a23c 1694 4dbd
000003a0: e120 17bd 29e7 9e3d aa0f 86bd 0290 933d
000003b0: d5f1 43bd 96eb c7bd 9542 b23d 7f78 e53d
000003c0: 344a a8bd 9794 133c 9539 1abd 9f00 93bc
000003d0: e415 f9bd 4b72 41bd f097 5f3d 7c24 ac3d
000003e0: 2d35 b0bc 3b08 75bd aaa8 c3bd 3c1a 21bd
000003f0: c7c0 ee3d c5e3 cdbb b4d1 65bd 974c a6bc

base_encoder.encoder_rnn.bias_hh_l0 f4 [400]
-0.050622515 -0.061132304 -0.07503996 -0.05182234 0.06750685 0.0033178905 0.020886714 -0.043324787
0.03550456 0.05695502 -0.031008886 0.096725255 0.06812516 -0.061167724 0.016340647 0.06532908
0.0643208 -0.043354873 0.08101491 0.018658035 0.12537047 -0.032739233 0.031192068 0.09513812
0.08059118 0.02197329 0.0635369 0.070224084 -0.004014096 -0.018360548 0.11136731 0.017478792
0.031086076 3.9099465e-05 -0.05362096 0.09271425 -0.09876402 -0.06567256 0.029787404 0.020499708
-0.043597467 0.07831735 -0.064641304 0.03982252 -0.04222461 0.09359506 -0.09875991 0.02968158
0.08821285 0.08540098 -0.086652435 -0.045911506 0.039254673 -0.025633473 -0.060827475 -0.060097486
-0.056487747 0.07597844 0.0037429808 -0.090538725 -0.08632953 -0.008992672 0.025302913 -0.024979394
0.0041660066 -0.0542787 -0.018860677 -0.0680582 0.07101072 -0.025715072 0.0051250537 0.07249272
-0.024436867 -0.006127092 0.055878807 0.09866025 0.017802887 0.043547187 -0.06431718 0.090889454
-0.02304819 0.09191704 -0.07729213 -0.023945488 -0.07014525 0.054291617 -0.0074836616 -0.037016727
-0.043487214 0.047188576 -0.0067429147 0.04794658 0.06065638 0.056648888 -0.031733215 0.10520962
-0.06310711 0.043883488 0.08825231 -0.032553375 -0.020880897 0.081149824 -0.023468073 -0.07049089
0.06699779 0.026477205 0.0074489964 0.104957424 -0.00034404724 0.015170832 -0.00859451 0.07120372
0.0953216 -0.04298467 -0.052971147 -0.04652256 -0.08726111 0.0017501075 -0.03358358 -0.03654098
-0.07730521 0.023928 0.043961033 0.050231718 0.068507485 -0.06080612 -0.073433876 0.0300599
0.07764432 0.08408404 0.071892865 -0.012292915 -0.091931134 0.02861877 -0.013393557 0.10748535
-0.018329417 0.048159253 0.064693004 -0.06340808 0.038809568 -0.054176264 0.041898664 -0.0059381677
0.07900167 -0.07159232 0.049657382 -0.054801386 0.13730189 0.023948373 -0.018281765 -0.08520166
0.03326188 -0.0796222 -0.0051286565 0.06700279 -0.03634121 0.11170098 0.021039158 0.026690768
-0.034049895 -0.061152853 -0.06468725 -1.4821757e-05 0.035016846 0.09627202 -0.059213474 -0.00055701047
-0.02885323 0.09631988 0.08182358 -0.02209867 -0.07724932 -0.0011464033 0.08084374 -0.07803886
-0.060426477 0.07842478 0.059496205 0.06415094 0.06275638 0.0674597 0.037086915 0.07633406
0.07533434 -0.006252092 0.103336014 -0.06755184 -0.030211769 0.006376908 0.07467885 0.0312727
0.07578494 -0.05877138 -0.05396607 0.011114502 -0.038893882 0.06313793 0.032375988 0.064048775
-0.100837216 -0.09218049 0.11750461 -0.007921223 -0.008179257 0.032407977 0.054267533 0.040420096
0.11912289 -0.074396774 0.04505464 0.048189208 0.0003966386 0.09542856 -0.0024672186 -0.014944813
0.03397364 0.08580977 -0.0071426826 -0.06446365 0.023896722 -0.087299 -0.068917476 0.09962639
-0.09121275 -0.022152953 0.02018834 -0.053374078 0.08938104 0.047847193 0.001739926 -0.004717772
0.055628795 0.050883096 0.091590576 -0.069278486 -0.029508807 0.085380025 -0.073669575 0.07823195
-0.07078635 -0.07499396 -0.036116034 0.07675517 -0.104062445 -0.048145503 0.114857 0.028413596
-0.10478917 0.07351691 -0.08043198 -0.056548204 0.015608725 0.06125587 -0.02369289 -0.10738745
00000000: 8e59 4fbd de65 7abd 8dae 99bd a943 54bd
00000010: 0841 8a3d f770 593b 9d1a ab3c 5575 31bd
00000020: 3b6d 113d ab49 693d 5906 febc e417 c63d
00000030: 3485 8b3d 028b 7abd d2dc 853c 41cb 853d
00000040: a0ba 833d e194 31bd 25eb a53d bcd8 983c
00000050: 1e61 003e 9319 06bd 8286 ff3c c6d7 c23d
00000060: fd0c a53d 5401 b43c a21f 823d a5d1 8f3d
00000070: ae88 83bb dc68 96bc 8b14 e43d af2f 8f3c
00000080: 3aa8 fe3c bbfe 2338 a7a1 5bbd f8e0 bd3d
00000090: ca44 cabd 567f 86bd b704 f43c 01ef a73c
000000a0: 4293 32bd d964 a03d a962 84bd f01c 233d
000000b0: b6f3 2cbd c4ae bf3d a342 cabd c926 f33c
000000c0: f0a8 b43d b6e6 ae3d d576 b1bd b40d 3cbd
000000d0: 82c9 203d 4afd d1bc 3b26 79bd c828 76bd
000000e0: b25f 67bd 969a 9b3d cc4c 753b 5e6c b9bd
000000f0: 89cd b0bd 0056 13bc 0e48 cf3c 96a1 ccbc
00000100: ff82 883b 5853 5ebd b581 9abc 1962 8bbd
00000110: 126e 913d 6aa8 d2bc 11f0 a73b 1077 943d
00000120: d32f c8bc c6c5 c8bb 2de1 643d 630e ca3d
00000130: 5cd7 913c 895e 323d bab8 83bd 4024 ba3d
00000140: 8fcf bcbc 003f bc3d 564b 9ebd 5429 c4bc
00000150: 50a8 8fbd e360 5e3d 8139 f5bb da9e 17bd
00000160: a61f 32bd cf48 413d abf3 dcbb a263 443d
00000170: d372 783d aa08 683d b0fa 01bd 2478 d73d
00000180: 4d3e 81bd 2cbf 333d a1bd b43d b056 05bd
00000190: 6a0e abbc e131 a63d 1e40 c0bc 875d 90bd
000001a0: 2336 893d b9e6 d83c b616 f43b ebf3 d63d
000001b0: 3d61 b4b9 158f 783c fdcf 0cbc 42d3 913d
000001c0: f937 c33d b110 30bd 46f8 58bd 718e 3ebd
000001d0: f4b5 b2bd dd63 e53a f08e 09bd ffab 15bd
000001e0: 3252 9ebd a704 c43c 7c10 343d c6bf 4d3d
000001f0: a74d 8c3d d70f 79bd 8064 96bd 2e40 f63c
00000200: fc03 9f3d 4134 ac3d 913c 933d 3968 49bc
00000210: 6446 bcbd e971 ea3c a670 5bbc 4721 dc3d
00000220: 9327 96bc a342 453d c47d 843d 18dc 81bd
00000230: c8f6 1e3d eee7 5dbd ef9d 2b3d f694 c2bb
00000240: a1cb a13d ff9e 92bd 8a65 4b3d 6b77 60bd
00000250: de98 0c3e 612f c43c a4c3 95bc 357e aebd
00000260: 9c3d 083d f710 a3bd 4a0e a8bb c238 893d
00000270: 85da 14bd 7cc3 e43d 505a ac3c 99a6 da3c
00000280: e777 0bbd 6a7b 7abd c07a 84bd f6aa 78b7
00000290: d36d 0f3d 442a c53d d489 72bd 5704 12ba
000002a0: 9c5d ecbc 5b43 c53d 1f93 a73d 4508 b5bc
000002b0: e434 9ebd e942 96ba 6791 a53d d6d2 9fbd
000002c0: c181 77bd 2c9d a03d 4bb2 733d 9161 833d
000002d0: 6b86 803d 5028 8a3d 73e8 173d 0855 9c3d
000002e0: e448 9a3d 59de ccbb d5a1 d33d 9e58 8abd
000002f0: ac7e f7bc 62f5 d03b 3af1 983d cd17 003d
00000300: 2235 9b3d 42ba 70bd 870b 5dbd 9a19 363c
00000310: 314f 1fbd 764e 813d af9c 043d 012c 833d
00000320: be83 cebd 20c9 bcbd 42a6 f03d 04c8 01bc
00000330: 4a02 06bc 3abe 043d a247 5e3d 8b8f 253d
00000340: b4f6 f33d 565d 98bd 378b 383d 0c62 453d
00000350: eff3 cf39 0d70 c33d 0fb1 21bb 17db 74bc
00000360: f227 0b3d 08bd af3d 2a0d eabb 8505 84bd
00000370: 0fc3 c33c d1c9 b2bd 9b24 8dbd ec08 cc3d
00000380: c0cd babd 1c7a b5bc 0562 a53c c79e 5abd
00000390: 680d b73d 6bfb 433d 3b0e e43a 8a97 9abb
000003a0: 05db 633d cb6a 503d d793 bb3d e1e1 8dbd
000003b0: 74bc f1bc b9db ae3d 13e0 96bd 1338 a03d
000003c0: 6ff8 90bd 6f96 99bd 68ee 13bd d131 9d3d
000003d0: b11e d5bd 3834 45bd 263a eb3d a1c3 e83c
000003e0: b49b d6bd 0990 963d 86b9 a4bd 179f 67bd
000003f0: bdbb 7f3c 6fe7 7a3d 9717 c2bc f4ed dbbd

base_encoder.encoder_rnn.weight_ih_l0_reverse f4 [400, 1]
0.035753697 -0.06334199 0.052842308 0.14666745 -0.05837885 -0.060364105 -0.056817546 0.041312695
-0.08668533 -0.043721285 0.073609136 0.09601017 0.14189869 -0.0067088315 0.06003095 -0.056071825
-0.089895 -0.06603381 0.14035392 -0.0576598 -0.037512343 -0.105975136 0.034573138 -0.017584357
0.019575171 0.06229552 -0.018288994 -0.036636546 -0.03468206 0.04896919 0.13765697 0.027061725
-0.07156339 0.13750757 0.08046344 -0.030788187 0.06587949 -0.07008623 0.032143902 -0.0015802283
-0.113225 0.09743957 0.017276965 -0.034092296 -0.03241427 0.042553265 0.057636164 -0.011276829
0.10312571 0.063573875 0.049004287 -0.017823488 0.121572256 0.037040837 -0.07685102 0.09702176
-0.048797887 0.027938265 0.12010061 -0.11185826 0.04989261 -0.0040468886 0.018067444 -0.02830944
0.072195336 0.02552415 0.039296497 -0.040057503 -0.044559367 0.05417493 0.065909065 -0.08909659
0.05632063 -0.031422675 -0.008701665 -0.050346036 -0.1591596 -0.092007875 0.105701365 -0.15500711
0.09249822 0.12903257 -0.0033249524 0.04588157 0.084448785 0.1113062 -0.031765416 -0.035748824
0.071891636 0.008437231 -0.019816292 -0.058188565 -0.02154317 0.041777115 0.1113545 0.06841734
0.07328238 0.019645471 -0.07796021 0.120573625 -0.11914736 -0.095967494 -0.07332333 0.14837772
0.07898377 -0.10132805 -0.10000393 -0.10081367 -0.09164754 0.004766779 0.045601003 0.14471924
-0.048584428 -0.01944869 -0.0652267 -0.046274718 -0.04369581 -0.04063973 0.15597112 0.07287908
-0.022249717 -0.010574184 0.0758897 -0.014943536 -0.073483706 0.0415912 -0.04236098 0.13611592
0.008384935 0.08858975 0.083027415 0.10117086 -0.020930193 0.06515166 -0.05033078 -0.11245866
0.0688485 -0.056627482 -0.036588274 0.13201208 -0.034739926 0.09916272 0.1217661 -0.1150773
-0.020328749 -0.07406421 -0.09893408 0.044873945 0.056710187 -0.012733413 -0.07884226 0.06868059
0.004929314 -0.029277125 0.023007283 0.15740035 0.038468637 -0.16648138 0.17810705 -0.122075476
0.0314603 -0.0066842926 -0.026761707 -0.048186276 0.0830484 -0.080472365 -0.039318647 0.020439634
0.054778732 0.0053911423 0.025532568 0.05930019 -0.06966688 0.034181025 -0.13907313 -0.07651464
0.009118406 -0.032331508 -0.014952835 -0.035789303 -0.0050051394 0.11921121 -0.095379956 0.0024050341
0.101067565 -0.05290477 0.027230402 0.111638516 0.0035801863 0.06749883 0.11177438 -0.02073469
-0.045580193 0.00024896694 0.023086058 0.04310836 -0.009458646 -0.0801273 -0.06976784 0.066859215
-0.022900023 -0.018265078 0.015111428 0.07190184 0.028526835 0.04170574 -0.05962031 0.042779993
0.060347773 -0.029169602 -0.028528543 -0.013505413 -0.0260577 0.025352437 -0.0057928553 0.055196527
0.05044846 -0.004602486 -0.063461214 -0.03661435 0.030411586 -0.068962425 0.069101505 0.0086304005
-0.011094825 0.022231719 -0.007497874 0.03030974 0.07074546 -0.037872672 0.07286119 0.025440333
-0.012588936 -0.061708175 -0.016940616 0.02550299 -0.08471546 -0.050717738 -0.0099943755 -0.063326426
-0.022887528 0.022899307 0.005435973 0.0440655 -0.056172676 0.020548489 0.052442104 0.05326112
0.085281394 -0.0020816866 -0.013015523 0.015467493 -0.037166435 -0.014068354 0.009639827 0.04192165
00000000: 7872 123d 72b9 81bd 2d71 583d fe2f 163e
00000010: a91e 6fbd 5a40 77bd 84b9 68bd 8037 293d
00000020: 1488 b1bd 1715 33bd 63c0 963d fba0 c43d
00000030: e44d 113e c2d5 dbbb 03e3 753d 92ab 65bd
00000040: df1a b8bd bc3c 87bd f0b8 0f3e af2c 6cbd
00000050: 8ba6 19bd 7e09 d9bd 909c 0d3d 120d 90bc
00000060: 1c5c a03c 9629 7f3d cdd2 95bc 3410 16bd
00000070: c70e 0ebd eb93 483d f3f5 0c3e 8db0 dd3c
00000080: d48f 92bd c9ce 0c3e 04ca a43d 8237 fcbc
00000090: d3eb 863d 5f89 8fbd 53a9 033d aa1f cfba
000000a0: 82e2 e7bd 668e c73d 6c88 8d3c 5da4 0bbd
000000b0: d3c4 04bd 554c 2e3d e613 6c3d 73c2 38bc
000000c0: 9233 d33d 0533 823d b8b8 483d 9002 92bc
000000d0: e0fa f83d 22b8 173d 1164 9dbd 58b3 c63d
000000e0: 4be0 47bd cade e43c 4ff7 f53d f215 e5bd
000000f0: 325c 4c3d c39b 84bb 2d02 943c 33e9 e7bc
00000100: 26db 933d 0618 d13c 5df5 203d 5613 24bd
00000110: e283 36bd 88e6 5d3d 55fb 863d 4678 b6bd
00000120: 76b0 663d 10b5 00bd 6e91 0ebc a537 4ebd
00000130: bcfa 22be a06e bcbd f579 d83d 2fba 1ebe
00000140: b56f bd3d 1d21 043e 72e7 59bb 50ee 3b3d
00000150: 7cf3 ac3d 81f4 e33d 741c 02bd 5c6d 12bd
00000160: ec3b 933d 503c 0a3c c755 a2bc 2257 6ebd
00000170: 4d7b b0bc 7b1e 2b3d d40d e43d 641e 8c3d
00000180: 1315 963d 8aef a03c 9aa9 9fbd 4eef f63d
00000190: 8803 f4bd 9b8a c4bd 8b2a 96bd 54f0 173e
000001a0: 3ec2 a13d 1585 cfbd dcce ccbd 6677 cebd
000001b0: b5b1 bbbd a432 9c3b 1ec8 3a3d 4831 143e
000001c0: 7700 47bd dc52 9fbc 9395 85bd 8f8a 3dbd
000001d0: 61fa 32bd d875 26bd e5b6 1f3e a141 953d
000001e0: 0a45 b6bc 583f 2dbc 0f6c 9b3d bcd5 74bc
000001f0: a07e 96bd 895b 2a3d b582 2dbd f961 0b3e
00000200: f760 093c 8b6e b53d 470a aa3d ab32 cf3d
00000210: cc75 abbc 3c6e 853d a627 4ebd ba50 e6bd
00000220: 7100 8d3d 38f2 67bd 96dd 15bd 2d2e 073e
00000230: 744b 0ebd d315 cb3d 8160 f93d a6ad ebbd
00000240: 7a88 a6bc faae 97bd f39d cabd becd 373d
00000250: f148 683d ce9f 50bc 0d78 a1bd 69a8 8c3d
00000260: 1586 a13b 95d6 efbc c579 bc3c 8f2d 213e
00000270: 4a91 1d3d 187a 2abe b261 363e b502 fabd
00000280: 84dc 003d e907 dbbb 5e3b dbbc f95e 45bd
00000290: 4815 aa3d b2ce a4bd 970c 21bd 0571 a73c
000002a0: aa5f 603d 2ea8 b03b ad29 d13c c2e4 723d
000002b0: 82ad 8ebd 6701 0c3d 3069 0ebe b5b3 9cbd
000002c0: 5e65 153c 0b6e 04bd bcfc 74bc ce97 12bd
000002d0: 2702 a4bb 0225 f43d 9156 c3bd c79d 1d3b
000002e0: 83fc ce3d acb2 58bd 4b12 df3c bca2 e43d
000002f0: 8fa1 6a3b d43c 8a3d f7e9 e43d ccdb a9bc
00000300: 4cb2 3abd c787 8239 f91e bd3c 6492 303d
00000310: 70f8 1abc c819 a4bd 71e2 8ebd 7ced 883d
00000320: d498 bbbc a5a0 95bc ec95 773c 4641 933d
00000330: 1cb1 e93c a3d3 2a3d 6d34 74bd 133a 2f3d
00000340: 3a2f 773d 17f5 eebc b1b4 e9bc cf45 5dbc
00000350: f576 d5bc eaaf cf3c fed1 bdbb c115 623d
00000360: 0ba3 4e3d 73d0 96bb f4f7 81bd eef8 15bd
00000370: b821 f93c 2c3c 8dbd 1785 8d3d 8666 0d3c
00000380: 12c7 35bc 4b1f b63c bab0 f5bb 224c f83c
00000390: ffe2 903d 6020 1bbd 3f38 953d 3f68 d03c
000003a0: d341 4ebc b6c1 7cbd 0cc7 8abc a6eb d03c
000003b0: 4d7f adbd 67bd 4fbd 73bf 23bc 49b1 81bd
000003c0: a07e bbbc 5497 bb3c 3f20 b23b 077e 343d
000003d0: 5215 66bd 4e55 a83c 88cd 563d 5528 5a3d
000003e0: 03a8 ae3d e86c 08bb 0f3f 55bc 5e6b 7d3c
000003f0: d53b 18bd f47e 66bc 5df0 1d3c 09b6 2b3d

base_encoder.encoder_rnn.weight_hh_l0_reverse f4 [400, 100]
0.043278784 0.017225504 -0.061491437 -0.014881785 0.05023731 -0.090270646 0.03209015 -0.040430892
-0.0581536 -0.09622063 0.05568086 -0.04123153 -0.06115316 -0.091427326 -0.0852904 0.07383179
0.049830884 -0.045174368 -0.02539522 0.023331873 -0.07043207 -0.006696286 -0.07472466 0.06409812
-0.06407304 -0.061110426 0.060846694 -0.04037494 -0.07976466 0.08680318 -0.11215489 -0.09374235
0.009485751 0.05484296 -0.014380379 -0.044979323 -0.059314553 0.10348384 0.078485526 0.09444837
-0.0888481 0.052147582 -0.07956224 0.042109855 -0.08042063 0.011178729 -0.066991396 -0.020308347
-0.066234596 -0.00093027 0.051958594 0.028186645 0.022139573 0.013361262 0.07208977 -0.0380474
0.034779295 -0.1062766 0.027375868 0.013189814 0.09901054 0.015806183 0.0768794 -0.019888647
0.0650142 -0.0101193525 -0.07358822 0.056068953 -0.006497549 -0.076418735 -0.04280401 -0.0014148076
0.08637314 -0.0017753958 0.0054047946 -0.07476897 -0.07332258 -0.08067843 -0.07068444 0.10129214
0.058520164 -0.067151375 -0.05694395 0.005098631 -0.036623977 0.016064612 0.085218094 0.029898476
0.014227434 0.08341036 -0.080160074 -0.011486183 0.06766632 -0.062375706 0.03757004 -0.07806068
0.06998033 0.07013183 0.06492741 -0.0898525 -0.0375786 -0.07945965 -0.029361237 -0.015203298
0.022581186 -0.042188685 0.0608102 0.097206526 0.041944496 -0.14264032 -0.121811524 -0.08805694
0.15216152 -0.09231599 0.04980599 0.008129283 0.14440721 0.010769012 0.056700576 0.03771447
0.09140151 -0.0074703367 -0.06438245 -0.09160243 0.07894625 -0.08286021 -0.07573094 -0.056675896
-0.028152978 0.12651087 0.02610022 -0.10761046 -0.024211844 0.07357913 0.006676597 0.07642391
0.0022349197 0.0891181 0.039825715 0.028980285 -0.038579643 0.008560748 0.07206235 0.04667575
-0.025848977 -0.1310451 -0.0220124 -0.13352452 0.00944415 -0.011441207 -0.14997968 0.024232581
0.12836494 -0.08740318 0.02300032 0.06682973 0.025873734 -0.042117577 0.09969753 -0.071458176
-0.1047697 0.11490251 8.491293e-05 -0.0806158 -0.06064156 -0.0033151375 -0.1032639 -0.0003521965
0.061316196 0.06179146 0.10486497 0.050374463 -0.016655786 0.059047863 -0.07518864 0.0024319598
-0.051747825 -0.07469827 0.12965947 -0.117009275 0.15320545 0.008843452 0.05730088 -0.032665957
0.027072698 0.14420846 -0.11450654 -0.02604466 -0.13730864 0.07871195 -0.05812683 0.10270259
0.014795457 0.056542553 -0.03383451 -0.09460416 -0.021395849 0.09387432 -0.035551127 -0.13685794
-0.0042743464 -0.054384284 -0.056996275 0.056880523 0.08090264 -0.025401704 0.051560532 -0.0043805083
0.11716025 -0.023426415 0.039911974 -0.035345092 0.04460193 0.033872597 -0.0426832 -0.03075498
0.005711325 0.06470773 0.038196858 0.061797522 0.03839177 -0.056420855 0.008627272 -0.11540633
0.11834138 -0.07348745 -0.07452101 -0.020673515 0.10027003 0.0725028 -0.034926955 -0.03615112
0.040334668 -0.11435705 -0.07948498 -0.08023022 -0.04320144 -0.02676492 0.009147991 0.026760744
-0.06220671 -0.021284454 -0.06659347 -0.010192626 -0.07531488 -0.113831624 -0.021182377 -0.045924067
0.05671974 -0.057068132 -0.029537179 -0.0804775 0.08058369 -0.01012656 0.064073786 0.016375054
00000000: 1845 313d 801c 8d3c 72de 7bbd bbd2 73bc
00000010: a3c5 4d3d d1df b8bd f670 033d dd9a 25bd
00000020: 7832 6ebd 520f c5bd 9d11 643d 65e2 28bd
00000030: bc7b 7abd 403e bbbd bcac aebd 1f35 973d
00000040: 781b 4c3d c208 39bd a309 d0bc 7c22 bf3c
00000050: b03e 90bd 856c dbbb 3e09 99bd e045 833d
00000060: ba38 83bd ed4e 7abd 623a 793d 3160 25bd
00000070: a75b a3bd dec5 b13d 77b1 e5bd fdfb bfbd
00000080: 206a 1b3c 03a3 603d ae9b 6bbc 3d3c 38bd
00000090: d1f3 72bd 56ef d33d 05bd a03d 266e c13d
000000a0: fef5 b5bd b498 553d 87f1 a2bd 627b 2c3d
000000b0: 92b3 a4bd fd26 373c c932 89bd b15d a6bc
000000c0: 01a6 87bd 5ddd 73ba 89d2 543d aee7 e63c
000000d0: 0d5e b53c 32e9 5a3c cda3 933d 97d7 1bbd
000000e0: bc74 0e3d 8ca7 d9bd 5b43 e03c 171a 583c
000000f0: 0ac6 ca3d f87b 813c f272 9d3d 84ed a2bc
00000100: 2a26 853d a4cb 25bc 6cb5 96bd 8fa8 653d
00000110: 64e9 d4bb 6d81 9cbd 4253 2fbd 1171 b9ba
00000120: 67e4 b03d 66b4 e8ba b41a b13b 7920 99bd
00000130: 262a 96bd bc3a a5bd 01c3 90bd 4172 cf3d
00000140: d7b2 6f3d a986 89bd 0f3e 69bd 6b12 a73b
00000150: 0603 16bd ef99 833c d386 ae3d a6ed f43c
00000160: 2f1a 693c 0dd3 aa3d f72a a4bd 8b30 3cbc
00000170: a494 8a3d ab7d 7fbd 0be3 193d 47de 9fbd
00000180: d951 8f3d 47a1 8f3d a9f8 843d 9604 b8bd
00000190: 05ec 19bd bebb a2bd fa86 f0bc 4117 79bc
000001a0: 2efc b83c 0bce 2cbd 1e14 793d 3714 c73d
000001b0: fecd 2b3d 4e10 12be 5278 f9bd 3257 b4bd
000001c0: 3bd0 1b3e 2a10 bdbd 5e01 4c3d af30 053c
000001d0: 7cdf 133e 8370 303c dd3e 683d 7d7a 1a3d
000001e0: b730 bb3d bac9 f4bb f2da 83bd 0e9a bbbd
000001f0: 92ae a13d 9db2 a9bd d318 9bbd fc24 68bd
00000200: 13a1 e6bc 118c 013e 21d0 d53c df62 dcbd
00000210: eb57 c6bc a8b0 963d 5bc7 da3b 2484 9c3d
00000220: bb77 123b 8d83 b63d 4a20 233d 1068 ed3c
00000230: b005 1ebd 6142 0c3c 6d95 933d 122f 3f3d
00000240: 3cc1 d3bc b030 06be 5953 b4bc a7ba 08be
00000250: a3bb 1a3c e673 3bbc 4694 19be 6883 c63c
00000260: 1972 033e 7000 b3bd 2b6b bc3c 07de 883d
00000270: 27f5 d33c 7b83 2cbd 382e cc3d aa58 92bd
00000280: 7f91 d6bd 0252 eb3d 4813 b238 e619 a5bd
00000290: 4963 78bd c742 59bb 067c d3bd 04a7 b8b9
000002a0: b126 7b3d 0b19 7d3d 72c3 d63d 7455 4e3d
000002b0: b771 88bc 2cdc 713d 80fc 99bd 8461 1f3b
000002c0: 87f5 53bd 68fb 98bd 74c5 043e 8fa2 efbd
000002d0: e4e1 1c3e 20e4 103c 54b4 6a3d bdcc 05bd
000002e0: 90c7 dd3c 62ab 133e 6882 eabd 9c5b d5bc
000002f0: a39a 0cbe bb33 a13d 6616 6ebd bc55 d23d
00000300: a568 723c 2a99 673d 0e96 0abd d3bf c1bd
00000310: 5946 afbc 2e41 c03d 0f9e 11bd 7d24 0cbe
00000320: d10f 8cbb 0ec2 5ebd ed74 69bd 8dfb 683d
00000330: 49b0 a53d 3c17 d0bc 2331 533d 5e8a 8fbb
00000340: b7f1 ef3d c1e8 bfbc bd7a 233d 04c6 10bd
00000350: 83b0 363d febd 0a3d 94d4 2ebd def1 fbbc
00000360: 1126 bb3b 7d85 843d 4f74 1c3d 661f 7d3d
00000370: b040 1d3d 8e19 67bd 6759 0d3c 275a ecbd
00000380: f75c f23d 9780 96bd 799e 98bd 815b a9bc
00000390: 605a cd3d 597c 943d 910f 0fbd 3213 14bd
000003a0: f735 253d 0734 eabd 05c9 a2bd be4f a4bd
000003b0: fef3 30bd 1b42 dbbc 75e1 153c 5939 db3c
000003c0: 77cc 7ebd bc5c aebc 2862 88bd f9fe 26bc
000003d0: b03e 9abd 8e20 e9bd aa86 adbc e01a 3cbd
000003e0: f552 683d 46c0 69bd f4f7 f1bc 63d1 a4bd
000003f0: 1009 a53d dfe9 25bc 1e39 833d fa24 863c

base_encoder.encoder_rnn.bias_ih_l0_reverse f4 [400]
-0.08656406 -0.026978225 0.041970838 -0.017668344 -0.0003503978 -0.0013714979 0.10297486 -0.030802807
0.059279554 -0.05111802 0.09420238 -0.0047256914 0.10773273 -0.08970665 -0.037674986 0.05236989
-0.03931325 0.0033144779 0.011313497 0.07562609 0.05699983 0.057725344 0.025691204 0.08783787
-0.05280145 0.0051355786 -0.006796281 -0.012159268 0.042100858 0.035942722 -0.012140697 0.007154301
-0.0075184214 -0.028965874 -0.066528626 -0.011477117 0.11104736 0.101923764 0.086730674 -0.05726018
0.056403063 -0.0019960208 0.0018415268 0.005304441 -0.025019238 0.0031402933 -0.049983203 0.07320913
0.07657711 -0.032830164 -0.06326779 -0.06988215 0.0060521457 -0.07561849 0.12442745 0.07372833
0.017683135 -0.06725674 0.07203609 0.020065246 0.08396425 -0.06860504 -0.02603113 0.061650656
-0.0797556 0.08511897 0.022275668 0.034175873 0.06390007 0.039984442 0.04318191 -0.001981236
0.030852115 0.048504923 0.03773216 0.100780115 -0.048366 0.031866565 -0.059792694 0.03138336
-0.0759183 0.00084442156 0.08076019 0.12683718 0.027227815 -0.017232288 0.03045325 -0.090140104
0.035631396 0.013980882 -0.054561503 0.122604035 0.07669207 0.049407836 -0.06779692 0.0012184469
-0.06257137 -0.027951786 0.09747309 0.04654346 -0.08767591 -0.012303072 0.037669044 0.019325543
0.093017206 0.10013946 0.062584884 0.016905678 0.05310303 -0.011848512 0.09115803 0.006108084
0.024197983 0.027276514 0.03511015 0.050463144 0.10674375 -0.025864456 -0.045693032 0.02883399
-0.009477823 -0.0033395528 0.014240844 -0.06841655 0.0103817135 0.0036352759 -0.035556335 -0.0071928743
0.022179736 0.096638024 -0.035802044 -0.03399073 0.03686038 0.011567947 -0.063236475 -0.0042193434
0.005517342 0.103409365 0.059000254 -0.067381606 0.085960545 0.052756242 0.03409315 0.0051896465
0.09565262 0.013472358 0.0013438226 -0.088158675 -0.03532916 -0.08109978 0.08085515 0.07610675
-0.06149817 0.06319582 -0.04967156 0.085262336 0.0936393 -0.016635176 -0.03408021 0.084496416
-0.058963027 0.1224735 0.021663971 6.72511e-05 0.0169169 -0.035674155 -0.073776774 -0.0077703665
0.015028913 -0.00017834915 0.06152509 -0.0729677 0.03469004 -0.033134867 -0.043947086 -0.064621665
0.11204041 0.07309319 0.004796783 -0.015830847 -0.053768534 0.04902404 0.086000726 0.0053845467
0.011322279 0.064559884 -0.028992904 0.07778761 0.07919295 -0.081161246 0.04059115 -0.0010352643
-0.022833582 0.13279659 -0.048347842 0.094645865 -0.0700851 0.00081074797 0.09022759 -0.06324254
-0.0427223 0.041798573 -0.024016501 0.07775024 0.07561922 0.018932465 -0.0011662816 0.04785119
0.0506958 -0.002782728 -0.05827116 -0.034085844 0.054871947 -0.030881401 -0.07160163 -0.028567396
0.105544776 -0.02150695 -0.07960732 -0.088462494 0.10294452 0.010360622 -0.06963891 -0.08340946
0.07677018 -0.032126334 0.030565642 -0.083620645 -0.045352656 0.03711656 -0.004911067 -0.048658278
0.054241203 -0.03260475 0.069380246 -0.04746117 0.028589817 0.048667002 0.07840935 0.06017928
0.088884965 0.023137815 0.033128798 0.0011105669 -0.120656654 -0.09466127 0.05389003 -0.08824684
-0.067754716 0.02918137 -0.1009893 -0.078238875 0.033483714 -0.10356233 -0.04830656 0.065330826
00000000: 7f48 b1bd 7001 ddbc 9de9 2b3d 34bd 90bc
00000010: 99b5 b7b9 d5c3 b3ba 7ce4 d23d 2b56 fcbc
00000020: 1ecf 723d 2161 51bd 2ded c03d f9d9 9abb
00000030: faa2 dc3d 1fb8 b7bd 1651 1abd cf81 563d
00000040: ee06 21bd b637 593b 3f5c 393c dae1 9a3d
00000050: a778 693d 6971 6c3d 5c76 d23c 57e4 b33d
00000060: 5546 58bd 5b48 a83b 56b3 debb ab37 47bc
00000070: f371 2c3d ad38 133d c6e9 46bc a06e ea3b
00000080: 175d f6bb d749 edbc 2940 88bd 850a 3cbc
00000090: cc6c e33d 68bd d03d da9f b13d a789 6abd
000000a0: e606 673d accf 02bb 635f f13a e0d0 ad3b
000000b0: 25f5 ccbc 61cd 4d3b 30bb 4cbd abee 953d
000000c0: 76d4 9c3d ec78 06bd 8b92 81bd 5f1e 8fbd
000000d0: 1451 c63b dedd 9abd d2d3 fe3d e1fe 963d
000000e0: 39dc 903c e7bd 89bd a887 933d df5f a43c
000000f0: 73f5 ab3d cd80 8cbd 3d3f d5bc 6685 7c3d
00000100: e756 a3bd db52 ae3d 767b b63c 00fc 0b3d
00000110: 0ade 823d bac6 233d 84df 303d a0d7 01bb
00000120: 93bd fc3c 19ad 463d 0a8d 1a3d ce65 ce3d
00000130: 6d1b 46bd 8486 023d 2fe9 74bd d78b 003d
00000140: 0e7b 9bbd 2c5c 5d3a 9965 a53d 9be1 013e
00000150: de0c df3c ba2a 8dbc 1879 f93c 609b b8bd
00000160: 3af2 113d 1210 653c e27b 5fbd d317 fb3d
00000170: bb10 9d3d df5f 4a3d 1dd9 8abd 4bb4 9f3a
00000180: 6b25 80bd 25fb e4bc f99f c73d 5ba4 3e3d
00000190: 6d8f b3bd d392 49bc db4a 1a3d 9a50 9e3c
000001a0: ce7f be3d eb15 cd3d 812c 803d c77d 8a3c
000001b0: 9082 593d 4320 42bc 10b1 ba3d 5326 c83b
000001c0: d93a c63c ff72 df3c a9cf 0f3d 71b2 4e3d
000001d0: 789c da3d b2e1 d3bc 9e28 3bbd 4335 ec3c
000001e0: df48 1bbc 66dc 5abb 6e52 693c fa1d 8cbd
000001f0: 1018 2a3c cf3d 6e3b 85a3 11bd 34b2 ebbb
00000200: 47b2 b53c 28ea c53d 2aa5 12bd dd39 0bbd
00000210: e9fa 163d 7d87 3d3c 2082 81bd 6b42 8abb
00000220: d2ca b43b 4ac8 d33d 40aa 713d 5eff 89bd
00000230: 150c b03d ee16 583d 42a5 0b3d e90d aa3b
00000240: 85e5 c33d 2abb 5c3c 3423 b03a 898c b4bd
00000250: 4fb5 10bd a417 a6bd 6397 a53d dbdd 9b3d
00000260: 81e5 7bbd cf6c 813d 6874 4bbd 059e ae3d
00000270: f6c5 bf3d 7e46 88bc b197 0bbd 750c ad3d
00000280: 3783 71bd 63d3 fa3d a478 b13c 2909 8d38
00000290: 5095 8a3c 101f 12bd 4718 97bd 8f9e febb
000002a0: d43b 763c 3c03 3bb9 bc01 7c3d 1770 95bd
000002b0: 2517 0e3d 6db8 07bd dc01 34bd 5d58 84bd
000002c0: 7175 e53d e2b1 953d 552e 9d3b b1af 81bc
000002d0: 653c 5cbd 6fcd 483d 2621 b03d da70 b03b
000002e0: 1581 393c f937 843d 8782 edbc 1c4f 9f3d
000002f0: ea2f a23d de37 a6bd e842 263d b5b1 87ba
00000300: 7e0d bbbc d4fb 073e 6308 46bd b1d5 c13d
00000310: c788 8fbd 6088 543a 3ec9 b83d 4e85 81bd
00000320: 94fd 2ebd fb34 2b3d 41be c4bc 853b 9f3d
00000330: 40de 9a3d 4218 9b3c ebdd 98ba 9cff 433d
00000340: 66a6 4f3d 6e5e 36bb bdad 6ebd 999d 0bbd
00000350: 68c1 603d fefa fcbc e0a3 92bd 2c06 eabc
00000360: dc27 d83d 582f b0bc 2a09 a3bd d32b b5bd
00000370: 94d4 d23d 99bf 293c d89e 8ebd 94d2 aabd
00000380: af39 9d3d e796 03bd cc64 fa3c 4d41 abbd
00000390: b5c3 39bd 8907 183d 04ed a0bb e74d 47bd
000003a0: 062c 5e3d 8f8c 05bd 3b17 8e3d a566 42bd
000003b0: 3135 ea3c 0d57 473d 1595 a03d 8c7e 763d
000003c0: 5209 b63d 848b bd3c 10b2 073d 7190 913a
000003d0: d61a f7bd c5dd c1bd cbbb 5c3d c2ba b4bd
000003e0: fcc2 8abd c50d ef3c 7ad3 cebd b43b a0bd
000003f0: 3826 093d 7d18 d4bd 19dd 45bd 2bcc 853d
